examples/eann/EANN_PES_DOUBLE.pt (torch, 229200 bytes, 47 tensors)

rs f8 [3, 16]
000000 00 00 00 20 06 1e b2 3f 00 00 00 20 56 f3 d8 3f
       0.07077062875032425 0.3898520767688751
000010 00 00 00 60 ee fb d7 bf 00 00 00 60 aa ee ef 3f
       -0.37475165724754333 0.9978839755058289
000020 00 00 00 20 4e aa ef 3f 00 00 00 60 5c 23 ed 3f
       0.9895392060279846 0.910566508769989
000030 00 00 00 80 b4 77 f9 3f 00 00 00 e0 bd 19 01 40
       1.5917248725891113 2.1375691890716553
000040 00 00 00 00 69 67 ff 3f 00 00 00 c0 80 65 04 40
       1.9627466201782227 2.5495619773864746
000050 00 00 00 a0 7b 8c 01 40 00 00 00 e0 d6 aa 04 40
       2.1935951709747314 2.5834176540374756
000060 00 00 00 20 b3 04 0c 40 00 00 00 60 e0 2c 0b 40
       3.5022947788238525 3.3969123363494873
000070 00 00 00 c0 35 7d 0f 40 00 00 00 e0 b8 30 0f 40
       3.9361376762390137 3.898790121078491
000080 00 00 00 c0 38 91 72 bf 00 00 00 60 94 a6 da 3f
       -0.004533025436103344 0.4164172112941742
000090 00 00 00 00 7b 39 e1 3f 00 00 00 80 15 80 e6 3f
       0.538266658782959 0.7031352519989014
0000a0 00 00 00 e0 30 28 e2 3f 00 00 00 c0 0d ff fd 3f
       0.5674061179161072 1.8747689723968506
0000b0 00 00 00 80 3e 9d 07 40 00 00 00 40 6c 7a 01 40
       2.951779365539551 2.184776782989502
0000c0 00 00 00 40 62 05 03 40 00 00 00 20 65 67 08 40
       2.377628803253174 3.050485849380493
0000d0 00 00 00 a0 3e 7f 05 40 00 00 00 80 c0 b1 07 40
       2.68713116645813 2.9617929458618164
0000e0 00 00 00 20 f1 c1 0a 40 00 00 00 60 3f 32 0b 40
       3.344698190689087 3.3995349407196045
0000f0 00 00 00 a0 97 4d 0b 40 00 00 00 00 11 12 10 40
       3.41288685798645 4.017642974853516
000100 00 00 00 80 03 21 b7 3f 00 00 00 20 cb 0c da 3f
       0.09034749865531921 0.40703085064888
000110 00 00 00 a0 a1 12 f3 3f 00 00 00 40 07 76 f1 3f
       1.1920486688613892 1.091315507888794
000120 00 00 00 80 7e bc f7 3f 00 00 00 60 16 7a f7 3f
       1.4835190773010254 1.4673064947128296
000130 00 00 00 80 db c2 fe 3f 00 00 00 c0 5c 15 f8 3f
       1.9225726127624512 1.5052154064178467
000140 00 00 00 c0 c8 4a 03 40 00 00 00 60 60 98 fe 3f
       2.411515712738037 1.9122012853622437
000150 00 00 00 20 10 e0 04 40 00 00 00 60 4b 30 0b 40
       2.609405755996704 3.3985812664031982
000160 00 00 00 60 70 6b 07 40 00 00 00 a0 1d 8b 0b 40
       2.9274604320526123 3.442927598953247
000170 00 00 00 e0 e5 bd 0b 40 00 00 00 40 a6 c5 0f 40
       3.4677236080169678 3.971508502960205

inta f8 [3, 16]
000000 00 00 00 c0 d7 e7 e0 3f 00 00 00 c0 ee a5 d4 3f
       0.5283011198043823 0.3226277232170105
000010 00 00 00 80 d9 7a f5 3f 00 00 00 a0 3f 34 b7 bf
       1.3424925804138184 -0.09064099937677383
000020 00 00 00 80 2d 56 de 3f 00 00 00 20 05 a5 ea 3f
       0.4740098714828491 0.8326440453529358
000030 00 00 00 00 c4 95 d2 3f 00 00 00 a0 e8 38 d6 3f
       0.2903909683227539 0.3472234308719635
000040 00 00 00 40 33 60 e3 bf 00 00 00 80 0f c8 e1 bf
       -0.6054931879043579 -0.5556714534759521
000050 00 00 00 c0 3f b7 ee 3f 00 00 00 c0 4b 52 d8 3f
       0.9598692655563354 0.38002294301986694
000060 00 00 00 40 53 14 ec 3f 00 00 00 60 75 ef dc 3f
       0.8774811029434204 0.45211538672447205
000070 00 00 00 40 a5 b7 e6 3f 00 00 00 20 a0 56 d9 3f
       0.7099176645278931 0.39591220021247864
000080 00 00 00 40 80 c7 e2 3f 00 00 00 a0 52 ff d5 3f
       0.5868531465530396 0.34370866417884827
000090 00 00 00 20 16 47 e2 3f 00 00 00 60 7e 27 d4 3f
       0.5711775422096252 0.31491050124168396
0000a0 00 00 00 40 b8 b5 fb 3f 00 00 00 40 7b 7e f7 3f
       1.7318651676177979 1.468379259109497
0000b0 00 00 00 e0 b6 77 ee 3f 00 00 00 60 23 b6 d0 3f
       0.9521135687828064 0.2611168324947357
0000c0 00 00 00 c0 79 23 da 3f 00 00 00 80 bc 65 e6 3f
       0.4084152579307556 0.6999189853668213
0000d0 00 00 00 c0 03 54 de 3f 00 00 00 20 6b de cc 3f
       0.47387784719467163 0.22553767263889313
0000e0 00 00 00 a0 88 e1 e4 3f 00 00 00 20 e4 7f db 3f
       0.6525309681892395 0.42968085408210754
0000f0 00 00 00 c0 1d 51 d0 3f 00 00 00 00 a3 35 e2 3f
       0.25495094060897827 0.5690474510192871
000100 00 00 00 a0 e1 e1 d5 3f 00 00 00 20 ca 70 d0 bf
       0.3419117033481598 -0.2568841278553009
000110 00 00 00 c0 c3 b4 96 bf 00 00 00 60 43 af d0 bf
       -0.022173937410116196 -0.26069721579551697
000120 00 00 00 20 4d ee a4 bf 00 00 00 60 17 b5 e4 3f
       -0.04088059440255165 0.647105872631073
000130 00 00 00 e0 bf ef e0 3f 00 00 00 40 be b4 f3 3f
       0.5292662978172302 1.2316267490386963
000140 00 00 00 00 de 03 d7 3f 00 00 00 a0 a7 cd f8 bf
       0.35961103439331055 -1.5502086877822876
000150 00 00 00 20 e2 ba cc 3f 00 00 00 80 97 5c ec 3f
       0.22445322573184967 0.8863027095794678
000160 00 00 00 a0 9f 73 c9 bf 00 00 00 40 e7 f8 cf 3f
       -0.19884105026721954 0.24978342652320862
000170 00 00 00 c0 f2 8e d8 3f 00 00 00 40 7c 5b dc 3f
       0.3837248682975769 0.44308382272720337

params f8 [3, 16]
000000 00 00 00 20 13 e3 d1 3f 00 00 00 20 5b 13 c5 3f
       0.2794845402240753 0.16465319693088531
000010 00 00 00 c0 f4 fa a0 bf 00 00 00 40 62 88 bd bf
       -0.03316464275121689 -0.11536230146884918
000020 00 00 00 a0 74 1f c9 3f 00 00 00 60 76 37 af bf
       0.19627244770526886 -0.06097001954913139
000030 00 00 00 40 08 7a bb 3f 00 00 00 20 b3 92 9a bf
       0.1073308140039444 -0.025950239971280098
000040 00 00 00 40 5a 03 c7 3f 00 00 00 00 27 71 b0 3f
       0.17978981137275696 0.06422656774520874
000050 00 00 00 80 fd f5 ba 3f 00 00 00 20 0f 68 b6 3f
       0.10531601309776306 0.08752531558275223
000060 00 00 00 a0 a4 ad bf 3f 00 00 00 00 75 27 d2 3f
       0.12374333292245865 0.2836582660675049
000070 00 00 00 60 50 e1 d2 bf 00 00 00 20 8a 23 cf 3f
       -0.2950020730495453 0.2432720810174942
000080 00 00 00 40 a2 62 d0 3f 00 00 00 a0 90 e7 c3 3f
       0.25602012872695923 0.15550430119037628
000090 00 00 00 a0 5d 3a c6 3f 00 00 00 20 f0 e5 db 3f
       0.1736561805009842 0.43590930104255676
0000a0 00 00 00 a0 8f b9 d7 bf 00 00 00 60 31 04 c0 3f
       -0.37070074677467346 0.12512795627117157
0000b0 00 00 00 20 cc 17 94 3f 00 00 00 c0 52 64 d2 3f
       0.01962202973663807 0.28737324476242065
0000c0 00 00 00 60 7c a5 ce bf 00 00 00 20 ee d1 db bf
       -0.23942522704601288 -0.43468812108039856
0000d0 00 00 00 20 03 3e d0 bf 00 00 00 40 a7 65 bc 3f
       -0.2537849247455597 0.11092610657215118
0000e0 00 00 00 40 d6 60 cd 3f 00 00 00 40 ae f9 c0 bf
       0.22951772809028625 -0.13261964917182922
0000f0 00 00 00 e0 84 55 d4 3f 00 00 00 80 a9 82 d2 3f
       0.3177196681499481 0.2892249822616577
000100 00 00 00 80 2f 06 c2 3f 00 00 00 20 6e 77 c5 bf
       0.14081376791000366 -0.16770721971988678
000110 00 00 00 60 34 3f ca 3f 00 00 00 e0 05 a5 c4 bf
       0.20505385100841522 -0.1612861007452011
000120 00 00 00 60 61 94 d4 3f 00 00 00 40 0c 39 d6 3f
       0.32155641913414 0.347231924533844
000130 00 00 00 80 5a 18 d4 bf 00 00 00 80 b8 ef bb 3f
       -0.3139864206314087 0.10912659764289856
000140 00 00 00 80 e9 83 b3 3f 00 00 00 60 36 e1 ce 3f
       0.07623156905174255 0.24124793708324432
000150 00 00 00 40 c6 5b d6 3f 00 00 00 20 d6 80 c1 3f
       0.3493514657020569 0.13674427568912506
000160 00 00 00 40 9c 41 c6 3f 00 00 00 20 f2 88 d2 bf
       0.1738772690296173 -0.28960850834846497
000170 00 00 00 e0 f7 4f df 3f 00 00 00 e0 87 ef d5 3f
       0.4892558753490448 0.3427447974681854

cutoff f8 [1]
000000 00 00 00 00 00 00 10 40
       4.0

initpot f8 [1]
000000 00 00 00 c0 70 09 71 3f
       0.004159393720328808

weight f8 [64, 48]
000000 00 00 00 00 06 14 d7 bf 00 00 00 80 dc e5 c8 3f
       -0.3605971336364746 0.19451481103897095
000010 00 00 00 20 18 1d 96 3f 00 00 00 20 dd 4e da bf
       0.021595360711216927 -0.41106346249580383
000020 00 00 00 a0 22 cf d0 bf 00 00 00 20 6d 10 c4 3f
       -0.2626425325870514 0.15675128996372223
000030 00 00 00 20 fc 77 d4 3f 00 00 00 e0 d3 8a d6 bf
       0.319823294878006 -0.35222336649894714
000040 00 00 00 60 01 f7 c3 bf 00 00 00 20 a5 ab e4 bf
       -0.15597550570964813 -0.6459527611732483
000050 00 00 00 80 31 da ac bf 00 00 00 a0 a4 be cf bf
       -0.05635218322277069 -0.2480054646730423
000060 00 00 00 80 08 c2 d2 bf 00 00 00 20 fd f8 d6 3f
       -0.29309284687042236 0.3589470684528351
000070 00 00 00 60 7f 1e e9 bf 00 00 00 20 89 86 db bf
       -0.7849728465080261 -0.4300864040851593
000080 00 00 00 20 6f 74 92 bf 00 00 00 40 d8 93 96 bf
       -0.018022285774350166 -0.022048357874155045
000090 00 00 00 20 e4 44 da 3f 00 00 00 80 0d 75 c1 3f
       0.41045477986335754 0.13638466596603394
0000a0 00 00 00 80 d5 ea c6 bf 00 00 00 00 97 ac 76 3f
       -0.1790415644645691 0.005535688251256943
0000b0 00 00 00 c0 e4 7e e4 bf 00 00 00 00 19 31 d2 3f
       -0.640489935874939 0.28424668312072754
0000c0 00 00 00 00 ec 97 a5 bf 00 00 00 60 e9 f0 d1 3f
       -0.042174696922302246 0.2803290784358978
0000d0 00 00 00 00 97 f8 a5 bf 00 00 00 20 45 f6 c1 bf
       -0.04291221499443054 -0.1403280645608902
0000e0 00 00 00 40 90 67 c3 3f 00 00 00 e0 92 53 f3 3f
       0.1515980064868927 1.2079037427902222
0000f0 00 00 00 e0 61 7d 93 3f 00 00 00 00 3f ab bd bf
       0.019032983109354973 -0.11589425802230835
000100 00 00 00 60 b0 a6 cc bf 00 00 00 20 9a 0f ba 3f
       -0.22383694350719452 0.10180056840181351
000110 00 00 00 80 54 7a b0 3f 00 00 00 00 ae 4b a6 bf
       0.06436660885810852 -0.04354614019393921
000120 00 00 00 80 70 7a 7d bf 00 00 00 60 0c 5d b8 bf
       -0.0071968454867601395 -0.0951698049902916
000130 00 00 00 40 e2 91 a4 3f 00 00 00 60 37 ec bb bf
       0.040175504982471466 -0.10907312482595444
000140 00 00 00 60 75 67 97 3f 00 00 00 80 79 1a c1 3f
       0.022855600342154503 0.13362044095993042
000150 00 00 00 20 35 19 d2 3f 00 00 00 e0 56 e5 d0 3f
       0.28278854489326477 0.26399776339530945
000160 00 00 00 e0 42 42 c1 bf 00 00 00 a0 59 68 a3 bf
       -0.1348346322774887 -0.037905503064394
000170 00 00 00 80 f4 90 ae 3f 00 00 00 80 5c 3f a5 bf
       0.05969966948032379 -0.04149903357028961
000180 00 00 00 40 5c bf db 3f 00 00 00 e0 56 81 ad 3f
       0.4335547089576721 0.05762740597128868
000190 00 00 00 e0 10 a7 c7 3f 00 00 00 20 03 c2 f6 3f
       0.18478594720363617 1.4223662614822388
0001a0 00 00 00 60 c3 7a e7 bf 00 00 00 60 9b a1 e4 bf
       -0.7337357401847839 -0.6447274088859558
0001b0 00 00 00 c0 af ba b4 3f 00 00 00 80 b3 bc d4 bf
       0.08097361028194427 -0.32401740550994873
0001c0 00 00 00 40 a5 c0 aa 3f 00 00 00 c0 c4 7c ca 3f
       0.05225101858377457 0.20693263411521912
0001d0 00 00 00 60 95 23 c9 bf 00 00 00 00 bf e9 b9 bf
       -0.19639842212200165 -0.1012229323387146
0001e0 00 00 00 20 05 27 d0 bf 00 00 00 c0 95 14 cf 3f
       -0.2523815929889679 0.24281570315361023
0001f0 00 00 00 00 12 5f d8 bf 00 00 00 00 e5 a2 95 bf
       -0.38080263137817383 -0.02112920582294464
000200 00 00 00 40 1e ea d9 3f 00 00 00 00 bf 95 e0 bf
       0.4049144387245178 -0.5182795524597168
000210 00 00 00 a0 9f bb b6 bf 00 00 00 20 7e 3e e9 3f
       -0.08880040794610977 0.7888785004615784
000220 00 00 00 20 d9 05 f2 3f 00 00 00 60 33 7b d6 3f
       1.1264277696609497 0.35126957297325134
000230 00 00 00 00 25 ca 9e bf 00 00 00 40 08 f5 9c bf
       -0.030067995190620422 -0.028278473764657974
000240 00 00 00 20 88 8d b0 bf 00 00 00 a0 b9 e1 cb 3f
       -0.06465960294008255 0.21782608330249786
000250 00 00 00 40 f2 17 e7 bf 00 00 00 20 a7 47 5d 3f
       -0.7216731309890747 0.0017871028976514935
000260 00 00 00 80 6c 1c b7 bf 00 00 00 a0 e9 c4 e2 3f
       -0.09027746319770813 0.5865371823310852
000270 00 00 00 60 86 b1 a8 bf 00 00 00 e0 d1 75 c5 3f
       -0.0482294075191021 0.16765807569026947
000280 00 00 00 20 39 fd ac 3f 00 00 00 c0 7a 29 cf bf
       0.05661943927407265 -0.24345335364341736
000290 00 00 00 80 6f 01 c5 bf 00 00 00 80 00 0e 93 bf
       -0.1641063094139099 -0.018608100712299347
0002a0 00 00 00 20 6c 4a b9 3f 00 00 00 00 5d 36 c5 bf
       0.09879184514284134 -0.16572153568267822
0002b0 00 00 00 00 aa b6 b1 3f 00 00 00 40 74 6a 93 3f
       0.06919348239898682 0.018960777670145035
0002c0 00 00 00 60 cc 18 b5 3f 00 00 00 20 7e f7 b1 bf
       0.08240964263677597 -0.0701826885342598
0002d0 00 00 00 a0 fa 23 b7 3f 00 00 00 a0 7a ed a7 bf
       0.09039274603128433 -0.04673369601368904
0002e0 00 00 00 c0 e2 12 b0 3f 00 00 00 40 2f 14 c6 bf
       0.06278817355632782 -0.17249098420143127
0002f0 00 00 00 a0 ba 08 ba 3f 00 00 00 80 94 5f d5 bf
       0.10169569402933121 -0.3339587450027466
000300 00 00 00 00 5f ad bd 3f 00 00 00 c0 19 9f e0 bf
       0.11592668294906616 -0.5194214582443237
000310 00 00 00 00 a8 f1 bb bf 00 00 00 40 97 cb c0 3f
       -0.10915613174438477 0.13121309876441956
000320 00 00 00 c0 98 da b4 3f 00 00 00 e0 36 19 a0 3f
       0.08146052062511444 0.031442370265722275
000330 00 00 00 40 a8 d1 ec bf 00 00 00 00 25 2c a2 3f
       -0.9005929231643677 0.035493046045303345
000340 00 00 00 c0 13 9d 97 3f 00 00 00 40 91 4f c1 bf
       0.023060139268636703 -0.13524070382118225
000350 00 00 00 a0 0a 4e ac 3f 00 00 00 00 7d ea ce 3f
       0.05528290942311287 0.24153101444244385
000360 00 00 00 a0 63 3d 96 3f 00 00 00 a0 0e 11 e5 bf
       0.021718556061387062 -0.6583321690559387
000370 00 00 00 c0 ac 09 af bf 00 00 00 c0 f2 56 c2 3f
       -0.060620687901973724 0.14327844977378845
000380 00 00 00 80 64 73 b5 3f 00 00 00 00 c0 cc aa 3f
       0.08379200100898743 0.05234336853027344
000390 00 00 00 80 79 1e 3a 3f 00 00 00 00 29 be c5 bf
       0.00039854494389146566 -0.16986572742462158
0003a0 00 00 00 a0 c9 fd f8 bf 00 00 00 40 97 46 c2 bf
       -1.5619598627090454 -0.14277926087379456
0003b0 00 00 00 60 25 d9 d1 3f 00 00 00 00 80 f7 d1 3f
       0.2788785398006439 0.280731201171875
0003c0 00 00 00 60 5d 95 d0 bf 00 00 00 80 92 4f ef bf
       -0.2591165006160736 -0.9784634113311768
0003d0 00 00 00 80 0e ae bf 3f 00 00 00 60 56 ec c5 bf
       0.12374964356422424 -0.17127494513988495
0003e0 00 00 00 00 28 d7 c7 bf 00 00 00 a0 0a 8d c3 bf
       -0.18625354766845703 -0.15274174511432648
0003f0 00 00 00 40 83 7e e4 bf 00 00 00 00 bb 19 d3 bf
       -0.6404434442520142 -0.298445463180542
000400 00 00 00 60 c3 43 a8 3f 00 00 00 a0 bb 7a 9f 3f
       0.047391992062330246 0.030741626396775246
000410 00 00 00 60 2a 8c b8 3f 00 00 00 00 c4 32 d2 3f
       0.09588875621557236 0.2843484878540039
000420 00 00 00 c0 38 8a ce 3f 00 00 00 20 4b 68 b9 bf
       0.238593190908432 -0.09924764186143875
000430 00 00 00 80 89 b7 aa bf 00 00 00 40 95 df 96 bf
       -0.05218152701854706 -0.022337276488542557
000440 00 00 00 a0 0e e1 c5 3f 00 00 00 e0 e7 fd ba 3f
       0.17093069851398468 0.1054367944598198
000450 00 00 00 c0 bc 9b ca 3f 00 00 00 40 2b 9b b3 bf
       0.2078777253627777 -0.07658644020557404
000460 00 00 00 60 ab 54 b5 bf 00 00 00 00 58 c7 97 bf
       -0.08332320302724838 -0.023221373558044434
000470 00 00 00 20 2e 07 be 3f 00 00 00 60 24 a1 84 bf
       0.11729706078767776 -0.010072979144752026
000480 00 00 00 40 0b 49 cc 3f 00 00 00 80 dc 8f dc bf
       0.22097912430763245 -0.4462805986404419
000490 00 00 00 60 9b 7f cf 3f 00 00 00 a0 e8 e3 e8 bf
       0.24608175456523895 -0.777820885181427
0004a0 00 00 00 80 8d 14 da 3f 00 00 00 20 25 dd dc 3f
       0.40750443935394287 0.45099762082099915
0004b0 00 00 00 80 6c 9d c4 bf 00 00 00 20 49 55 cd 3f
       -0.16105419397354126 0.2291652113199234
0004c0 00 00 00 60 e4 5d c5 3f 00 00 00 c0 65 1a d0 3f
       0.16692785918712616 0.2516111731529236
0004d0 00 00 00 80 8e d1 da 3f 00 00 00 00 64 6e 95 3f
       0.419040322303772 0.020928919315338135
0004e0 00 00 00 60 99 dc d0 3f 00 00 00 20 28 c4 dc bf
       0.2634643018245697 -0.44947245717048645
0004f0 00 00 00 80 68 1c a7 3f 00 00 00 80 ea 42 d7 3f
       0.045138612389564514 0.3634592294692993
000500 00 00 00 20 b0 a1 9e 3f 00 00 00 80 80 ca e1 3f
       0.02991366572678089 0.5559694766998291
000510 00 00 00 20 4f aa c7 3f 00 00 00 e0 67 37 d9 bf
       0.1848849207162857 -0.3940066993236542
000520 00 00 00 80 47 4f ed bf 00 00 00 80 50 b8 b9 bf
       -0.9159276485443115 -0.10046866536140442
000530 00 00 00 00 56 52 cc 3f 00 00 00 40 82 32 c8 bf
       0.22126269340515137 -0.189041405916214
000540 00 00 00 e0 50 c2 a0 bf 00 00 00 40 55 ea e8 bf
       -0.032732512801885605 -0.7786051034927368
000550 00 00 00 c0 09 7f cb 3f 00 00 00 a0 50 68 2f 3f
       0.21481439471244812 0.0002396200579823926
000560 00 00 00 00 f3 0c af 3f 00 00 00 20 71 46 84 3f
       0.06064566969871521 0.009899982251226902
000570 00 00 00 e0 0c 48 c0 bf 00 00 00 00 fd e2 d3 bf
       -0.12719880044460297 -0.3107292652130127
000580 00 00 00 00 52 74 cd 3f 00 00 00 40 75 d2 98 3f
       0.23011231422424316 0.02424033358693123
000590 00 00 00 60 6c 89 b6 3f 00 00 00 e0 2a e5 aa bf
       0.08803441375494003 -0.05252965912222862
0005a0 00 00 00 00 9c 69 83 3f 00 00 00 80 f0 da c6 3f
       0.009478777647018433 0.17855650186538696
0005b0 00 00 00 00 33 e3 de 3f 00 00 00 20 f0 9f b8 3f
       0.4826171398162842 0.09619046002626419
0005c0 00 00 00 e0 32 03 78 3f 00 00 00 40 39 35 b4 3f
       0.005862425547093153 0.07893712818622589
0005d0 00 00 00 c0 16 41 ae 3f 00 00 00 00 5c 50 8a 3f
       0.05909033864736557 0.012848585844039917
0005e0 00 00 00 a0 c5 3f cc 3f 00 00 00 40 af d2 c8 bf
       0.22069616615772247 -0.19392958283424377
0005f0 00 00 00 60 c8 e5 ac bf 00 00 00 00 cc b0 75 3f
       -0.056440602988004684 0.005295559763908386
000600 00 00 00 60 aa 2d d8 3f 00 00 00 20 64 94 bf 3f
       0.37778720259666443 0.12335801869630814
000610 00 00 00 60 bf 36 a9 3f 00 00 00 e0 9e fb e6 bf
       0.049245815724134445 -0.7182154059410095
000620 00 00 00 20 5b b1 d9 3f 00 00 00 40 17 a1 d2 bf
       0.40144994854927063 -0.2910822033882141
000630 00 00 00 80 3d a7 cc 3f 00 00 00 40 e1 85 a5 bf
       0.22385376691818237 -0.04203704744577408
000640 00 00 00 80 90 81 dd bf 00 00 00 20 98 e7 da 3f
       -0.4610329866409302 0.4203853905200958
000650 00 00 00 40 d4 a7 96 3f 00 00 00 60 c8 c0 8a 3f
       0.02212459221482277 0.013063016347587109
000660 00 00 00 20 00 78 dc 3f 00 00 00 e0 6b cb 54 bf
       0.4448242485523224 -0.0012692025629803538
000670 00 00 00 c0 75 37 b5 3f 00 00 00 80 ac 8f 6e bf
       0.0828775018453598 -0.003730618394911289
000680 00 00 00 a0 ac 4d 85 bf 00 00 00 00 94 64 b2 3f
       -0.010402058251202106 0.07184720039367676
000690 00 00 00 40 3e 9e da bf 00 00 00 40 1d ba e3 3f
       -0.4159083962440491 0.6164690256118774
0006a0 00 00 00 e0 7f 0e bb bf 00 00 00 40 62 22 d2 bf
       -0.10568999499082565 -0.28334861993789673
0006b0 00 00 00 60 36 f3 d0 bf 00 00 00 60 b6 a0 ae 3f
       -0.26484450697898865 0.059819888323545456
0006c0 00 00 00 80 68 78 f5 bf 00 00 00 a0 08 5f d9 3f
       -1.3418965339660645 0.39642539620399475
0006d0 00 00 00 c0 43 07 d4 bf 00 00 00 e0 2b 89 ac 3f
       -0.31294339895248413 0.05573403462767601
0006e0 00 00 00 20 de d7 ab 3f 00 00 00 20 26 bf e3 bf
       0.05438131466507912 -0.6170836091041565
0006f0 00 00 00 80 68 80 b3 bf 00 00 00 40 ff ac ee 3f
       -0.07617810368537903 0.9586178064346313
000700 00 00 00 80 a4 71 aa 3f 00 00 00 a0 37 cf cd 3f
       0.051648274064064026 0.23288626968860626
000710 00 00 00 40 ea 36 c8 3f 00 00 00 20 30 f3 a2 bf
       0.18917587399482727 -0.03701162710785866
000720 00 00 00 60 ce d6 71 bf 00 00 00 e0 e0 59 a4 3f
       -0.004355245735496283 0.03974821791052818
000730 00 00 00 40 1f 4c c7 3f 00 00 00 c0 08 c3 c2 3f
       0.18201056122779846 0.14657697081565857
000740 00 00 00 a0 d5 74 b6 3f 00 00 00 60 fa ce 95 bf
       0.08772025257349014 -0.02129737101495266
000750 00 00 00 c0 7f d8 d1 bf 00 00 00 a0 bb 9a a2 bf
       -0.2788390517234802 -0.03633676841855049
000760 00 00 00 80 6c f5 93 bf 00 00 00 60 cf 6d c1 3f
       -0.019490905106067657 0.1361636370420456
000770 00 00 00 c0 7f 07 c1 bf 00 00 00 20 28 38 d0 bf
       -0.1330413520336151 -0.25342753529548645
000780 00 00 00 e0 c4 65 d9 bf 00 00 00 40 b2 81 ec bf
       -0.3968364894390106 -0.8908320665359497
000790 00 00 00 60 8e ff c9 bf 00 00 00 c0 fb ea c0 bf
       -0.2031114548444748 -0.1321711242198944
0007a0 00 00 00 c0 2d b1 aa bf 00 00 00 20 0e c1 cf 3f
       -0.05213301628828049 0.2480790764093399
0007b0 00 00 00 60 f7 c5 d1 bf 00 00 00 60 c0 7e b8 bf
       -0.27770790457725525 -0.09568407386541367
0007c0 00 00 00 60 a0 c3 d6 3f 00 00 00 a0 d5 1b 96 bf
       0.3556900918483734 -0.02159055508673191
0007d0 00 00 00 a0 ee ca da 3f 00 00 00 a0 ab d7 b7 3f
       0.4186359941959381 0.09313461929559708
0007e0 00 00 00 40 e2 6c d7 bf 00 00 00 00 3b 79 d2 3f
       -0.36602073907852173 0.288649320602417
0007f0 00 00 00 80 0f c8 c6 bf 00 00 00 20 b2 54 d9 3f
       -0.17798036336898804 0.39579442143440247

bias f8 [64]
000000 00 00 00 20 93 2c a7 3f 00 00 00 80 79 20 b2 3f
       0.04526195302605629 0.07080802321434021
000010 00 00 00 e0 ac 35 93 3f 00 00 00 a0 b7 fb a5 bf
       0.01875944249331951 -0.04293607547879219
000020 00 00 00 c0 73 19 ab 3f 00 00 00 00 1f 83 bb 3f
       0.052928559482097626 0.10746949911117554
000030 00 00 00 40 d2 e6 9f 3f 00 00 00 60 cf 6c 7b bf
       0.031153950840234756 -0.0066955662332475185
000040 00 00 00 a0 01 c9 a9 3f 00 00 00 00 fe 2c 95 3f
       0.05036168172955513 0.020679444074630737
000050 00 00 00 60 e7 7e b3 3f 00 00 00 c0 bc 28 b6 3f
       0.0761551484465599 0.08655910193920135
000060 00 00 00 60 a9 6e a7 3f 00 00 00 e0 5f ea 99 3f
       0.045766156166791916 0.02530813030898571
000070 00 00 00 c0 ca 0f 99 3f 00 00 00 80 ed 4b a5 bf
       0.024474304169416428 -0.04159490764141083
000080 00 00 00 00 5c a5 93 bf 00 00 00 00 44 fd 80 3f
       -0.01918548345565796 0.008295565843582153
000090 00 00 00 20 17 88 a2 bf 00 00 00 40 0c 56 b4 3f
       -0.036194536834955215 0.0794379860162735
0000a0 00 00 00 60 62 b5 92 bf 00 00 00 80 eb 4c 92 3f
       -0.01827005110681057 0.01787155121564865
0000b0 00 00 00 c0 4a bd 8c bf 00 00 00 40 e3 ed a6 3f
       -0.014032920822501183 0.044783689081668854
0000c0 00 00 00 e0 eb 78 ae 3f 00 00 00 c0 8d 41 aa 3f
       0.0595163069665432 0.051281385123729706
0000d0 00 00 00 c0 06 5f 97 bf 00 00 00 20 c0 b5 b8 3f
       -0.022823434323072433 0.09652329236268997
0000e0 00 00 00 e0 e3 87 af 3f 00 00 00 20 7d 6a a7 3f
       0.061583634465932846 0.04573431983590126
0000f0 00 00 00 00 7e 70 8d bf 00 00 00 a0 e0 84 5b 3f
       -0.014374718070030212 0.0016796296695247293
000100 00 00 00 60 b5 4d 60 3f 00 00 00 40 36 5d a9 bf
       0.0019901792984455824 -0.04953927546739578
000110 00 00 00 e0 10 eb a2 bf 00 00 00 20 86 39 46 3f
       -0.03694966062903404 0.0006782441050745547
000120 00 00 00 40 9c de 7d bf 00 00 00 00 d3 40 80 bf
       -0.007292375899851322 -0.007936142385005951
000130 00 00 00 c0 75 d1 6e 3f 00 00 00 a0 47 58 91 3f
       0.003761987667530775 0.01693832315504551
000140 00 00 00 00 d9 73 99 bf 00 00 00 60 8d 91 a7 3f
       -0.02485598623752594 0.04603235051035881
000150 00 00 00 20 e8 58 96 bf 00 00 00 80 d9 0b b4 3f
       -0.021823527291417122 0.07830581068992615
000160 00 00 00 60 8f 90 a8 3f 00 00 00 80 8a 03 a1 3f
       0.047977905720472336 0.033230140805244446
000170 00 00 00 40 1e 58 9e 3f 00 00 00 c0 3c b9 be 3f
       0.029633019119501114 0.1200139969587326
000180 00 00 00 80 28 5c a1 bf 00 00 00 80 1e e2 8c 3f
       -0.0339062362909317 0.014103163033723831
000190 00 00 00 00 67 c7 ad 3f 00 00 00 80 11 e3 92 3f
       0.05816194415092468 0.018444322049617767
0001a0 00 00 00 40 c8 61 a0 3f 00 00 00 00 3d c7 93 3f
       0.031996019184589386 0.0193147212266922
0001b0 00 00 00 e0 70 2a b9 3f 00 00 00 c0 15 fd 95 bf
       0.09830384701490402 -0.02147325500845909
0001c0 00 00 00 a0 3f 8a b6 3f 00 00 00 80 f0 52 b2 3f
       0.08804700523614883 0.07157805562019348
0001d0 00 00 00 c0 22 99 9b 3f 00 00 00 40 7c a2 a6 bf
       0.02695135399699211 -0.04420841485261917
0001e0 00 00 00 60 be dd af 3f 00 00 00 a0 96 85 b2 3f
       0.06223864480853081 0.0723508968949318
0001f0 00 00 00 60 cf 39 a4 3f 00 00 00 60 c6 fe b4 3f
       0.0395035557448864 0.08201255649328232

weight f8 [64]
000000 00 00 00 c0 e6 38 ef 3f 00 00 00 c0 ef a0 f5 3f
       0.9756959676742554 1.3517911434173584
000010 00 00 00 e0 f6 6c e3 3f 00 00 00 80 87 5e 15 3f
       0.6070513129234314 8.151723886840045e-05
000020 00 00 00 a0 d3 6c f4 3f 00 00 00 e0 34 e3 f6 3f
       1.2765690088272095 1.43047034740448
000030 00 00 00 a0 7b 60 f5 3f 00 00 00 a0 fd ca f1 3f
       1.3360553979873657 1.1120582818984985
000040 00 00 00 c0 4e 46 f4 3f 00 00 00 80 71 e2 f8 3f
       1.267164945602417 1.555284023284912
000050 00 00 00 20 6f 9e e9 3f 00 00 00 20 0a f0 f5 3f
       0.8005900979042053 1.3711034059524536
000060 00 00 00 a0 a3 92 f6 3f 00 00 00 a0 fc 89 f5 3f
       1.410800576210022 1.3461881875991821
000070 00 00 00 c0 97 85 f5 3f 00 00 00 20 ca a3 f2 3f
       1.3451154232025146 1.1649876832962036
000080 00 00 00 20 ec f4 f5 3f 00 00 00 60 a4 e2 f3 3f
       1.3722954988479614 1.2428325414657593
000090 00 00 00 40 33 45 ec 3f 00 00 00 a0 33 5d f4 3f
       0.8834472894668579 1.2727543115615845
0000a0 00 00 00 80 4e 09 e7 3f 00 00 00 c0 01 e5 10 bf
       0.719886064529419 -6.444762402679771e-05
0000b0 00 00 00 e0 e9 83 f3 be 00 00 00 40 6f 61 f5 3f
       -1.8611228369991295e-05 1.3362877368927002
0000c0 00 00 00 e0 da f1 f6 3f 00 00 00 00 01 1f f0 3f
       1.4340466260910034 1.0075693130493164
0000d0 00 00 00 e0 7e e5 f0 3f 00 00 00 80 80 72 f2 3f
       1.056029200553894 1.1529545783996582
0000e0 00 00 00 80 bd 55 f5 3f 00 00 00 00 d3 72 f3 3f
       1.333432674407959 1.2155332565307617
0000f0 00 00 00 a0 6b c5 e6 3f 00 00 00 60 8c a3 bb 3f
       0.7115991711616516 0.10796429961919785
000100 00 00 00 60 d4 d9 f5 3f 00 00 00 20 47 b3 f3 3f
       1.3656810522079468 1.2312690019607544
000110 00 00 00 a0 02 05 f5 3f 00 00 00 20 5a 8c f2 3f
       1.3137232065200806 1.1592656373977661
000120 00 00 00 e0 85 e6 9d 3f 00 00 00 a0 b1 f2 f7 3f
       0.029199687764048576 1.4967514276504517
000130 00 00 00 c0 e4 d4 f0 3f 00 00 00 20 99 cf f3 3f
       1.051975965499878 1.2381831407546997
000140 00 00 00 60 b1 d8 ef 3f 00 00 00 c0 eb 68 f4 3f
       0.9952017664909363 1.2756154537200928
000150 00 00 00 c0 a5 32 f5 3f 00 00 00 e0 aa ea 25 3f
       1.3248651027679443 0.00016721092106308788
000160 00 00 00 00 ef 97 f3 3f 00 00 00 20 f1 08 f6 3f
       1.224593162536621 1.3771830797195435
000170 00 00 00 80 8a f5 e1 3f 00 00 00 20 f9 15 f0 3f
       0.5612232685089111 1.0053645372390747
000180 00 00 00 00 67 a1 f6 3f 00 00 00 e0 64 e5 f2 3f
       1.4144048690795898 1.1810044050216675
000190 00 00 00 20 4b 41 f1 3f 00 00 00 20 4f 79 f2 3f
       1.07844078540802 1.1546164751052856
0001a0 00 00 00 60 b2 40 f9 3f 00 00 00 60 42 9d ee 3f
       1.578295111656189 0.9566966891288757
0001b0 00 00 00 80 51 27 e7 3f 00 00 00 80 8a 01 f3 3f
       0.7235496044158936 1.1878762245178223
0001c0 00 00 00 00 47 6c f8 3e 00 00 00 20 34 cb f3 3f
       2.32915481319651e-05 1.2371102571487427
0001d0 00 00 00 60 ea e0 f5 3f 00 00 00 20 fc 71 f2 3f
       1.3674110174179077 1.152828335762024
0001e0 00 00 00 a0 3f 07 f3 3f 00 00 00 e0 d6 5d ee 3f
       1.1892696619033813 0.9489549994468689
0001f0 00 00 00 60 2f 99 f1 3f 00 00 00 20 f6 12 ef 3f
       1.0998986959457397 0.9710646271705627

bias f8 [64]
000000 00 00 00 20 bd 52 a2 3f 00 00 00 a0 e7 60 c2 bf
       0.03578749671578407 -0.1435822993516922
000010 00 00 00 e0 f1 b4 d9 bf 00 00 00 60 c7 e2 12 bf
       -0.4016689956188202 -7.204381836345419e-05
000020 00 00 00 20 06 35 c9 bf 00 00 00 c0 27 c0 c5 bf
       -0.1969306617975235 -0.16992661356925964
000030 00 00 00 a0 bd ea c4 3f 00 00 00 00 f8 c2 c5 bf
       0.16341371834278107 -0.1700124740600586
000040 00 00 00 40 36 37 af 3f 00 00 00 40 60 65 94 3f
       0.06096810847520828 0.019917968660593033
000050 00 00 00 c0 13 77 db 3f 00 00 00 60 8a db 97 3f
       0.42914289236068726 0.023298418149352074
000060 00 00 00 80 16 79 a3 bf 00 00 00 c0 a1 7c b6 3f
       -0.03803320229053497 0.08783923089504242
000070 00 00 00 c0 4e 05 c6 3f 00 00 00 60 69 85 b7 bf
       0.17203697562217712 -0.0918794497847557
000080 00 00 00 40 6a 7f b0 3f 00 00 00 40 54 f5 bd 3f
       0.06444419920444489 0.11702467501163483
000090 00 00 00 e0 59 ec c7 bf 00 00 00 00 c2 1c a1 3f
       -0.18690036237239838 0.03342252969741821
0000a0 00 00 00 80 ef b8 b0 bf 00 00 00 40 b6 60 ce be
       -0.0653218924999237 -3.6213136809237767e-06
0000b0 00 00 00 40 7e 77 11 3f 00 00 00 40 43 3c b6 3f
       6.66304404148832e-05 0.08685703575611115
0000c0 00 00 00 40 0f ae c5 3f 00 00 00 c0 a9 33 9c 3f
       0.16937437653541565 0.02754082903265953
0000d0 00 00 00 60 cc 25 b3 3f 00 00 00 60 c4 f7 a9 bf
       0.07479550689458847 -0.050718437880277634
0000e0 00 00 00 00 a7 2c a3 3f 00 00 00 e0 fe 02 cc 3f
       0.037450045347213745 0.21884141862392426
0000f0 00 00 00 20 74 b0 dd bf 00 00 00 80 9e ca c7 bf
       -0.46389487385749817 -0.1858709454536438
000100 00 00 00 60 7a 08 bf 3f 00 00 00 20 d0 f3 af 3f
       0.12122311443090439 0.06240702047944069
000110 00 00 00 80 50 35 9f 3f 00 00 00 c0 d6 83 e0 bf
       0.03047681599855423 -0.5160936117172241
000120 00 00 00 20 6d 60 a9 bf 00 00 00 40 20 fd a5 3f
       -0.04956379905343056 0.04294682294130325
000130 00 00 00 00 04 32 d6 bf 00 00 00 20 49 5a e0 3f
       -0.3468027114868164 0.5110211968421936
000140 00 00 00 e0 72 be bd bf 00 00 00 80 bc 8c e0 3f
       -0.11618726700544357 0.5171797275543213
000150 00 00 00 80 10 74 a5 bf 00 00 00 80 99 14 ea 3e
       -0.0419011265039444 1.2436135875759646e-05
000160 00 00 00 40 37 66 56 3f 00 00 00 40 1f 63 c0 3f
       0.0013671435881406069 0.12802496552467346
000170 00 00 00 c0 11 c5 d5 bf 00 00 00 a0 2a 23 ab 3f
       -0.34015315771102905 0.053002674132585526
000180 00 00 00 80 35 73 ad bf 00 00 00 20 c1 91 c8 3f
       -0.05751959979534149 0.1919480711221695
000190 00 00 00 80 cc a6 8f bf 00 00 00 c0 4e a3 a6 bf
       -0.015454862266778946 -0.04421468824148178
0001a0 00 00 00 c0 1f d1 ba 3f 00 00 00 00 8a 2b d5 bf
       0.10475347936153412 -0.330782413482666
0001b0 00 00 00 80 a0 f8 b9 3f 00 00 00 a0 ef 28 c7 bf
       0.10144999623298645 -0.1809367686510086
0001c0 00 00 00 00 a0 2b fd 3e 00 00 00 c0 31 9a ab bf
       2.781907096505165e-05 -0.05391078442335129
0001d0 00 00 00 00 1d 35 ad bf 00 00 00 00 16 4f cb bf
       -0.05704584717750549 -0.21335101127624512
0001e0 00 00 00 00 81 ca d1 3f 00 00 00 20 d5 d4 d4 3f
       0.2779848575592041 0.325490266084671
0001f0 00 00 00 20 5f 00 ca 3f 00 00 00 60 82 15 c5 3f
       0.20313633978366852 0.16471891105175018

alpha f8 [1, 64]
000000 00 00 00 a0 09 c9 f1 3f 00 00 00 20 a2 71 f1 3f
       1.1115814447402954 1.0902425050735474
000010 00 00 00 40 83 51 e5 3f 00 00 00 00 f0 8a a9 37
       0.6662002801895142 1.4660804923305534e-40
000020 00 00 00 60 40 ba f2 3f 00 00 00 00 c5 0c f2 3f
       1.1704715490341187 1.128117561340332
000030 00 00 00 20 67 75 f2 3f 00 00 00 20 5b 1b e7 3f
       1.1536628007888794 0.7220893502235413
000040 00 00 00 20 68 3c f1 3f 00 00 00 20 8a 93 f3 3f
       1.0772477388381958 1.2235203981399536
000050 00 00 00 e0 7c 90 eb 3f 00 00 00 60 ad 1f f4 3f
       0.8613876700401306 1.257733702659607
000060 00 00 00 20 f1 4f f1 3f 00 00 00 e0 3c 5d f3 3f
       1.0820170640945435 1.2102631330490112
000070 00 00 00 60 9e c5 f1 3f 00 00 00 80 20 34 f2 3f
       1.1107467412948608 1.1377263069152832
000080 00 00 00 00 46 2c f5 3f 00 00 00 00 da 87 f4 3f
       1.3233089447021484 1.2831668853759766
000090 00 00 00 c0 6a 16 eb 3f 00 00 00 00 57 3f f1 3f
       0.8464864492416382 1.0779638290405273
0000a0 00 00 00 60 e3 16 e4 3f 00 00 00 00 c0 c6 89 37
       0.6277939677238464 3.6987272965853547e-41
0000b0 00 00 00 00 d6 c8 d9 37 00 00 00 20 9d 07 f5 3f
       1.1839668815972882e-39 1.3143588304519653
0000c0 00 00 00 a0 cc fc f0 3f 00 00 00 20 86 11 ef 3f
       1.0617185831069946 0.970889151096344
0000d0 00 00 00 e0 68 cc ec 3f 00 00 00 20 09 be ea 3f
       0.8999523520469666 0.8356977105140686
0000e0 00 00 00 e0 73 7c f4 3f 00 00 00 80 97 ea f2 3f
       1.2803839445114136 1.1822733879089355
0000f0 00 00 00 20 58 16 ec 3f 00 00 00 00 9b bc c0 3e
       0.8777275681495667 1.9951748981839046e-06
000100 00 00 00 80 95 23 f4 3f 00 00 00 20 11 12 f0 3f
       1.2586874961853027 1.0044108629226685
000110 00 00 00 00 e9 89 f2 3f 00 00 00 00 e3 99 f3 3f
       1.1586694717407227 1.2250699996948242
000120 00 00 00 60 f7 68 96 3e 00 00 00 c0 bf ef f0 3f
       3.339353895626118e-07 1.058532476425171
000130 00 00 00 60 11 8f f0 3f 00 00 00 40 39 ee f4 3f
       1.0349286794662476 1.3081600666046143
000140 00 00 00 20 d2 94 ef 3f 00 00 00 20 db c4 f3 3f
       0.9869166016578674 1.2355605363845825
000150 00 00 00 40 e0 d8 f3 3f 00 00 00 80 9a bb 13 bc
       1.240448236465454 -2.674296633875018e-19
000160 00 00 00 a0 10 98 f2 3f 00 00 00 a0 fe a6 f0 3f
       1.1621252298355103 1.040770173072815
000170 00 00 00 40 d9 c5 df 3f 00 00 00 80 eb e9 ee 3f
       0.4964507222175598 0.9660546779632568
000180 00 00 00 e0 f2 34 f2 3f 00 00 00 e0 41 04 f1 3f
       1.1379269361495972 1.0635393857955933
000190 00 00 00 80 e2 81 f0 3f 00 00 00 00 a9 6a f2 3f
       1.031710147857666 1.1510400772094727
0001a0 00 00 00 00 d0 0a f0 3f 00 00 00 40 fb 68 f0 3f
       1.0026397705078125 1.025630235671997
0001b0 00 00 00 40 b0 d5 e6 3f 00 00 00 e0 e5 50 f3 3f
       0.7135850191116333 1.2072504758834839
0001c0 00 00 00 00 eb 0c 14 38 00 00 00 40 95 18 ea 3f
       1.473075213745077e-38 0.8155008554458618
0001d0 00 00 00 a0 e9 06 f3 3f 00 00 00 40 b4 6e f1 3f
       1.1891876459121704 1.0895273685455322
0001e0 00 00 00 a0 18 14 f3 3f 00 00 00 c0 e6 6d ee 3f
       1.1924062967300415 0.9509156942367554
0001f0 00 00 00 20 6d 74 f2 3f 00 00 00 40 d4 30 f0 3f
       1.1534243822097778 1.0119211673736572

beta f8 [1, 64]
000000 00 00 00 40 aa 68 a4 3f 00 00 00 c0 70 c8 d7 bf
       0.039861030876636505 -0.3716089129447937
000010 00 00 00 c0 2b de 94 3f 00 00 00 00 40 ca 9b b7
       0.02037876471877098 -7.975350079858264e-41
000020 00 00 00 e0 e1 94 db bf 00 00 00 20 ed eb dd 3f
       -0.43096205592155457 0.46752479672431946
000030 00 00 00 e0 d8 ce d8 3f 00 00 00 20 da e8 e4 bf
       0.38762494921684265 -0.6534243226051331
000040 00 00 00 60 e0 05 dc 3f 00 00 00 80 28 75 e3 3f
       0.4378586709499359 0.6080515384674072
000050 00 00 00 40 56 5a b2 3f 00 00 00 60 31 06 da 3f
       0.07169093191623688 0.40662798285484314
000060 00 00 00 00 69 fc db 3f 00 00 00 e0 e6 87 d8 3f
       0.43728089332580566 0.3832947909832001
000070 00 00 00 60 0c f2 d8 3f 00 00 00 60 64 fb ca 3f
       0.3897734582424164 0.21079687774181366
000080 00 00 00 60 79 cc d8 3f 00 00 00 00 11 84 d2 3f
       0.38748010993003845 0.2893106937408447
000090 00 00 00 e0 1d bd 9e bf 00 00 00 20 eb 46 d5 bf
       -0.03001829795539379 -0.33245351910591125
0000a0 00 00 00 a0 f9 3c d4 bf 00 00 00 00 20 49 9c b7
       -0.3162216246128082 -8.117581873987233e-41
0000b0 00 00 00 00 93 14 e3 b7 00 00 00 40 61 2d d7 3f
       -1.7522550660134318e-39 0.3621447682380676
0000c0 00 00 00 c0 78 be e0 3f 00 00 00 80 b2 93 c4 bf
       0.523250937461853 -0.16075736284255981
0000d0 00 00 00 e0 b2 b8 d2 bf 00 00 00 c0 b8 2c d9 bf
       -0.2925231158733368 -0.393354594707489
0000e0 00 00 00 40 72 be d7 3f 00 00 00 a0 15 97 ce bf
       0.37099891901016235 -0.23898573219776154
0000f0 00 00 00 a0 df 7d d3 bf 00 00 00 e0 dd b1 c0 be
       -0.3045577108860016 -1.9901742689398816e-06
000100 00 00 00 60 ae 12 dc 3f 00 00 00 a0 c2 c1 d1 3f
       0.43864020705223083 0.27745118737220764
000110 00 00 00 80 71 ad d5 3f 00 00 00 60 27 bc d6 3f
       0.338711142539978 0.3552339971065521
000120 00 00 00 c0 fb 62 96 be 00 00 00 00 e9 f7 df 3f
       -3.335871383569611e-07 0.49950623512268066
000130 00 00 00 40 f1 44 c3 bf 00 00 00 80 82 28 e0 3f
       -0.15054145455360413 0.5049450397491455
000140 00 00 00 e0 70 34 af 3f 00 00 00 60 da 06 d7 3f
       0.06094696745276451 0.3597932755947113
000150 00 00 00 e0 40 ac d8 3f 00 00 00 40 9a bb 13 3c
       0.3855135142803192 2.674296116887135e-19
000160 00 00 00 e0 85 4c d1 3f 00 00 00 40 b7 1e db 3f
       0.2702955901622772 0.42374974489212036
000170 00 00 00 a0 08 e3 94 3f 00 00 00 60 a6 76 b4 3f
       0.020397314801812172 0.0799354538321495
000180 00 00 00 a0 dc 7a dc 3f 00 00 00 20 4c 05 d1 3f
       0.4449988901615143 0.2659483253955841
000190 00 00 00 80 b0 71 be 3f 00 00 00 60 10 13 ca bf
       0.11892226338386536 -0.2037067860364914
0001a0 00 00 00 c0 90 5b e3 3f 00 00 00 00 5a 22 aa 3f
       0.6049274206161499 0.05104333162307739
0001b0 00 00 00 a0 ed bd be 3f 00 00 00 00 08 f4 d0 3f
       0.12008557468652725 0.2648944854736328
0001c0 00 00 00 60 8f c0 17 38 00 00 00 20 1c 4c df bf
       1.745035155935691e-38 -0.48902037739753723
0001d0 00 00 00 40 7e 9a da 3f 00 00 00 80 54 2d cd bf
       0.4156795144081116 -0.22794586420059204
0001e0 00 00 00 40 51 7c de 3f 00 00 00 a0 cf 15 b3 3f
       0.476337730884552 0.07455155998468399
0001f0 00 00 00 80 83 ba c4 3f 00 00 00 60 47 03 c2 bf
       0.16194194555282593 -0.1407250612974167

weight f8 [64, 64]
000000 00 00 00 e0 64 43 c6 3f 00 00 00 00 20 df ce bf
       0.17393170297145844 -0.24118423461914062
000010 00 00 00 60 ee 8e ac 3f 00 00 00 60 b4 18 b5 bf
       0.05577797815203667 -0.08240821212530136
000020 00 00 00 00 0e 58 c6 bf 00 00 00 00 e3 f1 d2 3f
       -0.1745622158050537 0.29601359367370605
000030 00 00 00 20 ad 23 de bf 00 00 00 60 d4 fc be 3f
       -0.47092750668525696 0.12104537338018417
000040 00 00 00 a0 0b 0a 91 bf 00 00 00 00 1e f6 b9 3f
       -0.01663988269865513 0.10141170024871826
000050 00 00 00 60 9c c9 d4 bf 00 00 00 20 73 26 94 3f
       -0.324805349111557 0.01967792399227619
000060 00 00 00 20 05 ce ce 3f 00 00 00 80 6c b6 c1 bf
       0.24066223204135895 -0.13837963342666626
000070 00 00 00 60 d2 ad 9b 3f 00 00 00 40 23 1c bb bf
       0.02703026495873928 -0.10589809715747833
000080 00 00 00 20 60 0b ce bf 00 00 00 00 0b 20 d5 bf
       -0.23472215235233307 -0.3300807476043701
000090 00 00 00 a0 17 7e c3 bf 00 00 00 80 46 db b7 3f
       -0.15228553116321564 0.09318962693214417
0000a0 00 00 00 e0 67 e8 c3 3f 00 00 00 80 a5 af c1 3f
       0.1555299609899521 0.13817280530929565
0000b0 00 00 00 a0 b1 9e a0 bf 00 00 00 40 ab 40 9b 3f
       -0.032460737973451614 0.026613879948854446
0000c0 00 00 00 e0 8f 51 ba bf 00 00 00 20 f2 d3 9d 3f
       -0.10280703753232956 0.029128821566700935
0000d0 00 00 00 00 87 03 bd 3f 00 00 00 a0 ca dc b4 3f
       0.11333507299423218 0.08149401098489761
0000e0 00 00 00 20 03 3f ac bf 00 00 00 c0 a7 70 c1 bf
       -0.05516824498772621 -0.13625046610832214
0000f0 00 00 00 e0 68 eb d2 3f 00 00 00 80 c6 f7 a2 3f
       0.2956182658672333 0.03704662621021271
000100 00 00 00 60 cd 4d cb bf 00 00 00 40 01 aa ac bf
       -0.2133118361234665 -0.055984534323215485
000110 00 00 00 00 b5 32 ce 3f 00 00 00 c0 04 fe be 3f
       0.2359224557876587 0.12106351554393768
000120 00 00 00 a0 8d f8 c7 3f 00 00 00 00 8d ed b3 3f
       0.18727274239063263 0.07784348726272583
000130 00 00 00 00 c4 77 c8 bf 00 00 00 00 91 02 a6 3f
       -0.19115495681762695 0.042988330125808716
000140 00 00 00 60 37 10 9f bf 00 00 00 00 47 0b bd bf
       -0.03033529780805111 -0.11345332860946655
000150 00 00 00 80 38 9b db bf 00 00 00 a0 d2 9f b6 bf
       -0.43134891986846924 -0.08837620168924332
000160 00 00 00 a0 c9 0b d3 bf 00 00 00 80 5c 5b b1 bf
       -0.29759445786476135 -0.06780031323432922
000170 00 00 00 e0 16 80 8f bf 00 00 00 60 70 4c c2 3f
       -0.015381029807031155 0.14295773208141327
000180 00 00 00 c0 06 e7 cb bf 00 00 00 60 65 09 bc bf
       -0.21798786520957947 -0.1095183715224266
000190 00 00 00 80 f0 04 ce bf 00 00 00 c0 93 e3 80 bf
       -0.23452574014663696 -0.008246568962931633
0001a0 00 00 00 20 9d 66 b3 3f 00 00 00 00 e0 87 c3 3f
       0.07578451186418533 0.15258407592773438
0001b0 00 00 00 a0 08 73 c9 3f 00 00 00 e0 b9 53 9b 3f
       0.19882304966449738 0.02668657712638378
0001c0 00 00 00 20 ac 1a bc 3f 00 00 00 40 11 a1 b8 3f
       0.10978198796510696 0.09620769321918488
0001d0 00 00 00 c0 a9 6f ae bf 00 00 00 e0 8f fd c6 bf
       -0.05944567173719406 -0.17961309850215912
0001e0 00 00 00 e0 11 9e a8 bf 00 00 00 e0 2f 1a b4 bf
       -0.04808097705245018 -0.07852458208799362
0001f0 00 00 00 e0 7c 2f 8b bf 00 00 00 40 ca 03 c8 bf
       -0.013274169526994228 -0.18761566281318665
000200 00 00 00 20 55 36 a1 3f 00 00 00 e0 e8 59 d8 3f
       0.03361764922738075 0.3804876506328583
000210 00 00 00 80 0d 71 c5 bf 00 00 00 40 61 67 c1 bf
       -0.16751259565353394 -0.1359674036502838
000220 00 00 00 60 75 4b c5 bf 00 00 00 c0 79 c1 d2 bf
       -0.16636531054973602 -0.2930588126182556
000230 00 00 00 60 8b eb d1 3f 00 00 00 80 11 30 bd bf
       0.2800014913082123 -0.11401471495628357
000240 00 00 00 00 bd 8e b6 3f 00 00 00 60 21 e3 a5 bf
       0.08811551332473755 -0.04274849221110344
000250 00 00 00 80 ea ea c7 3f 00 00 00 c0 40 50 d6 3f
       0.18685656785964966 0.3486482501029968
000260 00 00 00 80 2e 01 c7 bf 00 00 00 a0 c3 98 c1 bf
       -0.1797235608100891 -0.13747449219226837
000270 00 00 00 80 56 94 d1 3f 00 00 00 c0 2e 3a e3 3f
       0.2746788263320923 0.600852370262146
000280 00 00 00 20 10 e6 87 3f 00 00 00 80 81 ea ba 3f
       0.011669279076159 0.10514077544212341
000290 00 00 00 e0 cc 9d d0 3f 00 00 00 60 7f b0 c3 3f
       0.25963136553764343 0.15382377803325653
0002a0 00 00 00 a0 69 6e c3 bf 00 00 00 e0 8a 46 c9 bf
       -0.1518070250749588 -0.19746528565883636
0002b0 00 00 00 c0 1f 78 a8 3f 00 00 00 60 ae 7b dc bf
       0.04779147356748581 -0.44504889845848083
0002c0 00 00 00 c0 e5 37 da 3f 00 00 00 c0 ce 27 c7 3f
       0.4096617102622986 0.18090233206748962
0002d0 00 00 00 80 fb 6e b2 bf 00 00 00 80 1f 73 c8 bf
       -0.07200595736503601 -0.19101327657699585
0002e0 00 00 00 60 4d f7 9e bf 00 00 00 40 d0 e3 dc bf
       -0.03024025820195675 -0.4514046311378479
0002f0 00 00 00 80 81 7e a2 3f 00 00 00 20 0a 96 9b bf
       0.03612141311168671 -0.026939542964100838
000300 00 00 00 c0 8e 27 5f bf 00 00 00 a0 ec f2 ce 3f
       -0.0019015211146324873 0.24178846180438995
000310 00 00 00 40 11 a2 cd bf 00 00 00 00 ec 1b de bf
       -0.23150840401649475 -0.47045421600341797
000320 00 00 00 00 09 cd cb bf 00 00 00 00 90 1f cc 3f
       -0.21719467639923096 0.2197132110595703
000330 00 00 00 60 c2 d6 cf 3f 00 00 00 00 7e 34 df 3f
       0.24874143302440643 0.4875788688659668
000340 00 00 00 60 78 b3 c9 bf 00 00 00 00 c8 7b dc 3f
       -0.20078949630260468 0.4450550079345703
000350 00 00 00 40 56 ef d3 3f 00 00 00 a0 4f a0 c6 3f
       0.3114829659461975 0.17676730453968048
000360 00 00 00 80 2a 96 e1 3f 00 00 00 a0 81 af b0 3f
       0.5495808124542236 0.06517801433801651
000370 00 00 00 60 4f f8 61 bf 00 00 00 c0 4f 14 c5 bf
       -0.002193598775193095 -0.16468235850334167
000380 00 00 00 40 62 c0 e0 bf 00 00 00 e0 41 df 97 bf
       -0.5234843492507935 -0.02331259660422802
000390 00 00 00 80 02 a3 d2 bf 00 00 00 a0 00 5e b0 bf
       -0.29119932651519775 -0.06393436342477798
0003a0 00 00 00 e0 51 37 cd bf 00 00 00 e0 f7 27 b9 bf
       -0.22825072705745697 -0.0982661172747612
0003b0 00 00 00 80 f0 31 bf bf 00 00 00 e0 ac 1f c4 bf
       -0.12185576558113098 -0.1572166532278061
0003c0 00 00 00 c0 99 2e b2 bf 00 00 00 00 8c a1 ae 3f
       -0.07102356851100922 0.05982625484466553
0003d0 00 00 00 60 2a 99 da bf 00 00 00 80 1a 6d bc bf
       -0.41559848189353943 -0.11103978753089905
0003e0 00 00 00 a0 a0 27 e3 3f 00 00 00 00 f8 2a 94 3f
       0.5985873341560364 0.019695162773132324
0003f0 00 00 00 00 fd 87 c0 bf 00 00 00 00 d5 c5 9c 3f
       -0.12915003299713135 0.028098419308662415
000400 00 00 00 e0 02 2c ab bf 00 00 00 c0 44 cb 9c bf
       -0.053070154041051865 -0.028119157999753952
000410 00 00 00 e0 8f b5 a1 bf 00 00 00 00 f1 c1 aa bf
       -0.03458833321928978 -0.052260905504226685
000420 00 00 00 00 86 3c ce bf 00 00 00 60 b8 80 d2 bf
       -0.2362220287322998 -0.28910645842552185
000430 00 00 00 20 fe 3e dc 3f 00 00 00 80 ec e1 c5 bf
       0.4413447678089142 -0.17095714807510376
000440 00 00 00 c0 49 e9 c3 bf 00 00 00 00 30 0e a0 3f
       -0.15555688738822937 0.03135824203491211
000450 00 00 00 80 3a 75 9e 3f 00 00 00 80 d6 7a c2 bf
       0.029744066298007965 -0.14437371492385864
000460 00 00 00 c0 05 4d b6 bf 00 00 00 e0 41 fb b2 3f
       -0.08711276948451996 0.07414638251066208
000470 00 00 00 00 0b 94 da 3f 00 00 00 20 f9 cb b5 bf
       0.4152858257293701 -0.08514363318681717
000480 00 00 00 20 12 e3 c0 bf 00 00 00 80 cd 46 d7 3f
       -0.1319296509027481 0.36369645595550537
000490 00 00 00 a0 58 2d c9 bf 00 00 00 80 2d ab a7 bf
       -0.19669635593891144 -0.04622785747051239
0004a0 00 00 00 00 2b 3d 9f bf 00 00 00 c0 50 7c b5 bf
       -0.03050677478313446 -0.08392815291881561
0004b0 00 00 00 60 5b 59 c0 3f 00 00 00 c0 ba bd b7 3f
       0.1277269572019577 0.0927387923002243
0004c0 00 00 00 a0 4e 03 c8 bf 00 00 00 60 65 5e c7 3f
       -0.18760092556476593 0.1825682371854782
0004d0 00 00 00 e0 43 96 b2 bf 00 00 00 00 2b 02 c9 3f
       -0.07260536402463913 0.19537866115570068
0004e0 00 00 00 e0 51 b9 98 3f 00 00 00 00 7b 25 c8 bf
       0.02414443902671337 -0.18864381313323975
0004f0 00 00 00 80 9b 4c bd bf 00 00 00 c0 f6 a9 bf 3f
       -0.11445018649101257 0.12368719279766083
000500 00 00 00 40 c9 94 a2 bf 00 00 00 c0 06 46 ad bf
       -0.036291398108005524 -0.05717488378286362
000510 00 00 00 00 e9 34 c9 3f 00 00 00 e0 86 17 ca bf
       0.19692718982696533 -0.20384298264980316
000520 00 00 00 80 cd d2 c1 3f 00 00 00 80 1c dd cf 3f
       0.13924568891525269 0.2489352822303772
000530 00 00 00 60 36 f5 d9 3f 00 00 00 e0 3c 90 b7 3f
       0.40559157729148865 0.0920446440577507
000540 00 00 00 00 ff 76 a5 bf 00 00 00 80 ca f6 ac 3f
       -0.04192349314689636 0.05657036602497101
000550 00 00 00 00 38 a7 d2 bf 00 00 00 20 f8 8d b8 bf
       -0.2914562225341797 -0.0959162786602974
000560 00 00 00 40 ac 0f d3 bf 00 00 00 80 ce 2a b1 bf
       -0.29783159494400024 -0.06705942749977112
000570 00 00 00 e0 0b 39 aa 3f 00 00 00 60 e4 c9 c9 bf
       0.051216479390859604 -0.20147375762462616
000580 00 00 00 20 2f 01 83 3f 00 00 00 40 b6 34 d0 3f
       0.009279602207243443 0.25321727991104126
000590 00 00 00 60 6b 30 be bf 00 00 00 20 3e bb d9 bf
       -0.11792632192373276 -0.4020533859729767
0005a0 00 00 00 60 fe 81 d0 bf 00 00 00 80 e9 20 d2 bf
       -0.25793418288230896 -0.2832587957382202
0005b0 00 00 00 a0 be a4 b6 3f 00 00 00 c0 dc bb c1 3f
       0.08845130354166031 0.13854560256004333
0005c0 00 00 00 60 fa e0 a8 bf 00 00 00 a0 b3 e9 be bf
       -0.04859144613146782 -0.12075350433588028
0005d0 00 00 00 c0 67 ba b8 bf 00 00 00 60 49 26 cf 3f
       -0.09659431874752045 0.2433559149503708
0005e0 00 00 00 e0 1a e0 ce 3f 00 00 00 40 48 d7 9c 3f
       0.24121414124965668 0.02816498652100563
0005f0 00 00 00 c0 96 22 bf bf 00 00 00 00 88 1a c5 3f
       -0.12162153422832489 0.1648721694946289
000600 00 00 00 60 6a ba c0 3f 00 00 00 c0 e5 1f 6f 3f
       0.13068895041942596 0.0037993895821273327
000610 00 00 00 e0 a4 ad da 3f 00 00 00 00 bf 9f b3 3f
       0.41684839129447937 0.0766562819480896
000620 00 00 00 40 f5 58 d0 bf 00 00 00 80 1e b3 b5 3f
       -0.25542956590652466 0.08476439118385315
000630 00 00 00 20 db 04 c1 bf 00 00 00 20 ef 4f a9 bf
       -0.13296069204807281 -0.04943797364830971
000640 00 00 00 20 b8 d6 b8 3f 00 00 00 20 0c 7e cc bf
       0.09702635556459427 -0.2225966602563858
000650 00 00 00 a0 20 30 d8 bf 00 00 00 a0 4c 43 a1 3f
       -0.3779374659061432 0.03371657803654671
000660 00 00 00 c0 e6 28 b4 3f 00 00 00 80 d1 85 b1 3f
       0.07874910533428192 0.06844815611839294
000670 00 00 00 60 d0 a6 8a bf 00 00 00 20 5a 5e bc bf
       -0.013013484887778759 -0.11081469804048538
000680 00 00 00 c0 af dd cb bf 00 00 00 40 97 f9 d3 bf
       -0.21770283579826355 -0.3121088147163391
000690 00 00 00 e0 6a 23 81 bf 00 00 00 60 4f a9 b8 bf
       -0.008368334732949734 -0.09633346647024155
0006a0 00 00 00 a0 1d f0 a2 3f 00 00 00 a0 b2 ce b6 bf
       0.036988187581300735 -0.089091457426548
0006b0 00 00 00 00 8a 84 c2 3f 00 00 00 00 ca bf bf 3f
       0.144669771194458 0.12402021884918213
0006c0 00 00 00 e0 35 55 c0 bf 00 00 00 00 39 39 c4 3f
       -0.12760041654109955 0.1579962968826294
0006d0 00 00 00 e0 6b 49 bd 3f 00 00 00 80 e4 86 cc 3f
       0.11440157145261765 0.22286659479141235
0006e0 00 00 00 c0 9d ff c6 3f 00 00 00 80 92 14 aa 3f
       0.17967578768730164 0.0509382039308548
0006f0 00 00 00 40 24 c1 cb bf 00 00 00 20 90 7d c8 3f
       -0.21683171391487122 0.1913318783044815
000700 00 00 00 c0 f1 0e c0 3f 00 00 00 c0 c0 14 b0 bf
       0.1254560649394989 -0.06281666457653046
000710 00 00 00 a0 00 a2 d4 3f 00 00 00 a0 0e d3 d3 3f
       0.32238784432411194 0.30975690484046936
000720 00 00 00 00 37 62 93 3f 00 00 00 60 b3 15 ba bf
       0.01892934739589691 -0.10189362615346909
000730 00 00 00 c0 43 a7 c8 3f 00 00 00 80 3f 7b d2 bf
       0.19260451197624207 -0.28877246379852295
000740 00 00 00 60 ee 27 ba 3f 00 00 00 a0 0c 44 c6 bf
       0.10217180103063583 -0.17395170032978058
000750 00 00 00 c0 52 25 e2 bf 00 00 00 60 9d 4e b0 bf
       -0.5670560598373413 -0.06369956582784653
000760 00 00 00 80 f2 a6 ba bf 00 00 00 a0 a5 62 c8 bf
       -0.10410991311073303 -0.19051046669483185
000770 00 00 00 60 0d 4d ae 3f 00 00 00 a0 6f 4c d2 3f
       0.059181611984968185 0.2859152853488922
000780 00 00 00 20 2d b2 b0 3f 00 00 00 20 e3 39 bd bf
       0.06521875411272049 -0.11416453868150711
000790 00 00 00 60 50 68 af bf 00 00 00 80 98 e2 be 3f
       -0.06134272739291191 0.12064507603645325
0007a0 00 00 00 00 70 11 a5 bf 00 00 00 20 f7 cc c5 3f
       -0.04114866256713867 0.17031754553318024
0007b0 00 00 00 60 f1 56 c9 bf 00 00 00 40 c9 5e c4 3f
       -0.19796578586101532 0.1591426432132721
0007c0 00 00 00 a0 35 dd a7 bf 00 00 00 20 a9 38 90 bf
       -0.04660956934094429 -0.01584114320576191
0007d0 00 00 00 80 cb 99 bc 3f 00 00 00 00 a1 0d a6 3f
       0.11172172427177429 0.04307273030281067
0007e0 00 00 00 80 11 37 c0 bf 00 00 00 c0 ce fe c4 bf
       -0.12668055295944214 -0.16402611136436462
0007f0 00 00 00 c0 ce b7 99 bf 00 00 00 00 00 a9 b3 3f
       -0.025115232914686203 0.0767974853515625
