examples/eann/EANN.pth (torch, 328043 bytes, 126 tensors)

density.rs f4 [3, 16]
000000 31 f0 90 3d b1 9a c7 3e 73 df bf be 53 75 7f 3f
       0.07077063 0.38985208 -0.37475166 0.997884
000010 71 52 7d 3f e3 1a 69 3f a4 bd cb 3f ef cd 08 40
       0.9895392 0.9105665 1.5917249 2.1375692
000020 48 3b fb 3f 06 2c 23 40 dd 63 0c 40 b7 56 25 40
       1.9627466 2.549562 2.1935952 2.5834177
000030 99 25 60 40 03 67 59 40 ae e9 7b 40 c7 85 79 40
       3.5022948 3.3969123 3.9361377 3.8987901
000040 c6 89 94 bb a3 34 d5 3e d8 cb 09 3f ac 00 34 3f
       -0.0045330254 0.4164172 0.53826666 0.70313525
000050 87 41 11 3f 6e f8 ef 3f f4 e9 3c 40 62 d3 0b 40
       0.5674061 1.874769 2.9517794 2.1847768
000060 12 2b 18 40 29 3b 43 40 f5 f9 2b 40 04 8e 3d 40
       2.3776288 3.0504858 2.6871312 2.961793
000070 89 0f 56 40 fb 91 59 40 bd 6c 5a 40 88 90 80 40
       3.3446982 3.399535 3.4128869 4.017643
000080 1c 08 b9 3d 59 66 d0 3e 0d 95 98 3f 3a b0 8b 3f
       0.0903475 0.40703085 1.1920487 1.0913155
000090 f4 e3 bd 3f b3 d0 bb 3f dc 16 f6 3f e6 aa c0 3f
       1.4835191 1.4673065 1.9225726 1.5052154
0000a0 46 56 1a 40 03 c3 f4 3f 81 00 27 40 5b 82 59 40
       2.4115157 1.9122013 2.6094058 3.3985813
0000b0 83 5b 3b 40 ed 58 5c 40 2f ef 5d 40 32 2d 7e 40
       2.9274604 3.4429276 3.4677236 3.9715085

density.inta f4 [3, 16]
000000 be 3e 07 3f 76 2f a5 3e cc d6 ab 3f fd a1 b9 bd
       0.5283011 0.32262772 1.3424926 -0.090641
000010 6c b1 f2 3e 29 28 55 3f 20 ae 94 3e 45 c7 b1 3e
       0.47400987 0.83264405 0.29039097 0.34722343
000020 9a 01 1b bf 7c 40 0e bf fe b9 75 3f 5e 92 c2 3e
       -0.6054932 -0.55567145 0.95986927 0.38002294
000030 9a a2 60 3f ab 7b e7 3e 2a bd 35 3f 01 b5 ca 3e
       0.8774811 0.4521154 0.70991766 0.3959122
000040 02 3c 16 3f 95 fa af 3e b1 38 12 3f f3 3b a1 3e
       0.58685315 0.34370866 0.57117754 0.3149105
000050 c2 ad dd 3f da f3 bb 3f b7 bd 73 3f 1b b1 85 3e
       1.7318652 1.4683793 0.95211357 0.26111683
000060 ce 1b d1 3e e4 2d 33 3f 1e a0 f2 3e 59 f3 66 3e
       0.40841526 0.699919 0.47387785 0.22553767
000070 45 0c 27 3f 21 ff db 3e ee 88 82 3e 18 ad 11 3f
       0.65253097 0.42968085 0.25495094 0.56904745
000080 0d 0f af 3e 51 86 83 be 1e a6 b5 bc 1b 7a 85 be
       0.3419117 -0.25688413 -0.022173937 -0.26069722
000090 69 72 27 bd bb a8 25 3f ff 7d 07 3f f2 a5 9d 3f
       -0.040880594 0.6471059 0.5292663 1.2316267
0000a0 f0 1e b8 3e 3d 6d c6 bf 11 d7 65 3e bc e4 62 3f
       0.35961103 -1.5502087 0.22445323 0.8863027
0000b0 fd 9c 4b be 3a c7 7f 3e 96 77 c4 3e e2 db e2 3e
       -0.19884105 0.24978343 0.38372487 0.44308382

density.params f4 [3, 16]
000000 99 18 8f 3e d9 9a 28 3e a6 d7 07 bd 12 43 ec bd
       0.27948454 0.1646532 -0.033164643 -0.1153623
000010 a5 fb 48 3e b3 bb 79 bd 42 d0 db 3d 99 95 d4 bc
       0.19627245 -0.06097002 0.107330814 -0.02595024
000020 d2 1a 38 3e 38 89 83 3d ec af d7 3d 79 40 b3 3d
       0.17978981 0.06422657 0.10531601 0.087525316
000030 25 6d fd 3d a8 3b 91 3e 83 0a 97 be 51 1c 79 3e
       0.12374333 0.28365827 -0.29500207 0.24327208
000040 12 15 83 3e 85 3c 1f 3e ed d2 31 3e 81 2f df 3e
       0.25602013 0.1555043 0.17365618 0.4359093
000050 7d cc bd be 8b 21 00 3e 61 be a0 3c 96 22 93 3e
       -0.37070075 0.12512796 0.01962203 0.28737324
000060 e3 2b 75 be 71 8f de be 19 f0 81 be 3a 2d e3 3d
       -0.23942523 -0.43468812 -0.25378492 0.11092611
000070 b2 06 6b 3e 72 cd 07 be 27 ac a2 3e 4c 15 94 3e
       0.22951773 -0.13261965 0.31771967 0.28922498
000080 7c 31 10 3e 71 bb 2b be a3 f9 51 3e 2f 28 25 be
       0.14081377 -0.16770722 0.20505385 -0.1612861
000090 0b a3 a4 3e 62 c8 b1 3e d4 c2 a0 be c4 7d df 3d
       0.32155642 0.34723192 -0.31398642 0.1091266
0000a0 4c 1f 9c 3d b3 09 77 3e 32 de b2 3e b1 06 0c 3e
       0.07623157 0.24124794 0.34935147 0.13674428
0000b0 e2 0c 32 3e 91 47 94 be bf 7f fa 3e 3f 7c af 3e
       0.17387727 -0.2896085 0.48925588 0.3427448

nnmod.elemental_nets.H.0.weight f4 [64, 48]
000000 30 a0 b8 be e4 2e 47 3e c1 e8 b0 3c e9 76 d2 be
       -0.36059713 0.19451481 0.02159536 -0.41106346
000010 15 79 86 be 69 83 20 3e e1 bf a3 3e 9f 56 b4 be
       -0.26264253 0.15675129 0.3198233 -0.35222337
000020 0b b8 1f be 29 5d 25 bf 8c d1 66 bd 25 f5 7d be
       -0.1559755 -0.64595276 -0.056352183 -0.24800546
000030 44 10 96 be e9 c7 b7 3e fb f3 48 bf 49 34 dc be
       -0.29309285 0.35894707 -0.78497285 -0.4300864
000040 79 a3 93 bc c2 9e b4 bc 21 27 d2 3e 6c a8 0b 3e
       -0.018022286 -0.022048358 0.41045478 0.13638467
000050 ac 56 37 be b8 64 b5 3b 26 f7 23 bf c8 88 91 3e
       -0.17904156 0.0055356883 -0.64048994 0.28424668
000060 60 bf 2c bd 4b 87 8f 3e b8 c4 2f bd 29 b2 0f be
       -0.042174697 0.28032908 -0.042912215 -0.14032806
000070 82 3c 1b 3e 97 9c 9a 3f 0f eb 9b 3c f8 59 ed bd
       0.151598 1.2079037 0.019032983 -0.11589426
000080 83 35 65 be d1 7c d0 3d a4 d2 83 3d 70 5d 32 bd
       -0.22383694 0.10180057 0.06436661 -0.04354614
000090 84 d3 eb bb 63 e8 c2 bd 12 8f 24 3d bb 61 df bd
       -0.0071968455 -0.095169805 0.040175505 -0.109073125
0000a0 ab 3b bb 3c cc d3 08 3e a9 c9 90 3e b7 2a 87 3e
       0.0228556 0.13362044 0.28278854 0.26399776
0000b0 17 12 0a be cd 42 1b bd a4 87 74 3d e4 fa 29 bd
       -0.13483463 -0.037905503 0.05969967 -0.041499034
0000c0 e2 fa dd 3e b7 0a 6c 3d 87 38 3d 3e 19 10 b6 3f
       0.4335547 0.057627406 0.18478595 1.4223663
0000d0 1b d6 3b bf db 0c 25 bf 7e d5 a5 3d 9c e5 a5 be
       -0.73373574 -0.6447274 0.08097361 -0.3240174
0000e0 2a 05 56 3d 26 e6 53 3e ab 1c 49 be f8 4d cf bd
       0.05225102 0.20693263 -0.19639842 -0.10122293
0000f0 29 38 81 be ae a4 78 3e 90 f8 c2 be 28 17 ad bc
       -0.2523816 0.2428157 -0.38080263 -0.021129206
000100 f2 50 cf 3e f8 ad 04 bf fd dc b5 bd f1 f3 49 3f
       0.40491444 -0.51827955 -0.08880041 0.7888785
000110 c9 2e 90 3f 9b d9 b3 3e 28 51 f6 bc 42 a8 e7 bc
       1.1264278 0.35126957 -0.030067995 -0.028278474
000120 41 6c 84 bd cd 0d 5f 3e 92 bf 38 bf 39 3d ea 3a
       -0.0646596 0.21782608 -0.72167313 0.0017871029
000130 64 e3 b8 bd 4d 27 16 3f 33 8c 45 bd 8f ae 2b 3e
       -0.09027746 0.5865372 -0.048229408 0.16765808
000140 c9 e9 67 3d d6 4b 79 be 7c 0b 28 be 04 70 98 bc
       0.05661944 -0.24345335 -0.16410631 -0.0186081
000150 61 53 ca 3d e8 b2 29 be 50 b5 8d 3d a2 53 9b 3c
       0.098791845 -0.16572154 0.06919348 0.018960778
000160 63 c6 a8 3d f1 bb 8f bd d5 1f b9 3d d5 6b 3f bd
       0.08240964 -0.07018269 0.090392746 -0.046733696
000170 16 97 80 3d 7a a1 30 be d5 45 d0 3d a4 fc aa be
       0.06278817 -0.17249098 0.101695694 -0.33395875
000180 f8 6a ed 3d ce f8 04 bf 40 8d df bd ba 5c 06 3e
       0.11592668 -0.51942146 -0.10915613 0.1312131
000190 c6 d4 a6 3d b7 c9 00 3d 42 8d 66 bf 28 61 11 3d
       0.08146052 0.03144237 -0.9005929 0.035493046
0001a0 9e e8 bc 3c 8a 7c 0a be 55 70 62 3d e8 53 77 3e
       0.02306014 -0.1352407 0.05528291 0.24153101
0001b0 1d eb b1 3c 75 88 28 bf 66 4d 78 bd 96 b7 12 3e
       0.021718556 -0.65833217 -0.060620688 0.14327845
0001c0 24 9b ab 3d 00 66 56 3d cc f3 d0 39 48 f1 2d be
       0.083792 0.05234337 0.00039854494 -0.16986573
0001d0 4d ee c7 bf ba 34 12 be 2b c9 8e 3e 00 bc 8f 3e
       -1.5619599 -0.14277926 0.27887854 0.2807312
0001e0 eb aa 84 be 94 7c 7a bf 74 70 fd 3d b3 62 2f be
       -0.2591165 -0.9784634 0.12374964 -0.17127495
0001f0 40 b9 3e be 55 68 1c be 1a f4 23 bf d8 cd 98 be
       -0.18625355 -0.15274175 -0.64044344 -0.29844546
000200 1b 1e 42 3d dd d5 fb 3c 53 61 c4 3d 20 96 91 3e
       0.047391992 0.030741626 0.095888756 0.2843485
000210 c6 51 74 3e 59 42 cb bd 4c bc 55 bd aa fc b6 bc
       0.23859319 -0.09924764 -0.052181527 -0.022337276
000220 75 08 2f 3e 3f ef d7 3d e6 dd 54 3e 5a d9 9c bd
       0.1709307 0.105436794 0.20787773 -0.07658644
000230 5b a5 aa bd c0 3a be bc 71 39 f0 3d 23 09 25 bc
       -0.0833232 -0.023221374 0.11729706 -0.010072979
000240 5a 48 62 3e e4 7e e4 be db fc 7b 3e 45 1f 47 bf
       0.22097912 -0.4462806 0.24608175 -0.7778209
000250 6c a4 d0 3e 29 e9 e6 3e 64 eb 24 be 49 aa 6a 3e
       0.40750444 0.45099762 -0.1610542 0.22916521
000260 23 ef 2a 3e 2e d3 80 3e 74 8c d6 3e 20 73 ab 3c
       0.16692786 0.25161117 0.41904032 0.02092892
000270 cb e4 86 3e 41 21 e6 be 44 e3 38 3d 54 17 ba 3e
       0.2634643 -0.44947246 0.045138612 0.36345923
000280 81 0d f5 3c 04 54 0e 3f 79 52 3d 3e 3f bb c9 be
       0.029913666 0.5559695 0.18488492 -0.3940067
000290 3c 7a 6a bf 84 c2 cd bd b0 92 62 3e 12 94 41 be
       -0.91592765 -0.100468665 0.2212627 -0.1890414
0002a0 87 12 06 bd aa 52 47 bf 4e f8 5b 3e 85 42 7b 39
       -0.032732513 -0.7786051 0.2148144 0.00023962006
0002b0 98 67 78 3d 89 33 22 3c 67 40 02 be e8 17 9f be
       0.06064567 0.009899982 -0.1271988 -0.31072927
0002c0 90 a2 6b 3e aa 93 c6 3c 63 4b b4 3d 57 29 57 bd
       0.23011231 0.024240334 0.088034414 -0.05252966
0002d0 e0 4c 1b 3c 84 d7 36 3e 98 19 f7 3e 81 ff c4 3d
       0.009478778 0.1785565 0.48261714 0.09619046
0002e0 97 19 c0 3b ca a9 a1 3d b6 08 72 3d e0 82 52 3c
       0.0058624255 0.07893713 0.05909034 0.012848586
0002f0 2d fe 61 3e 7a 95 46 be 43 2e 67 bd 60 86 ad 3b
       0.22069617 -0.19392958 -0.056440603 0.0052955598
000300 53 6d c1 3e 21 a3 fc 3d fb b5 49 3d f7 dc 37 bf
       0.3777872 0.12335802 0.049245816 -0.7182154
000310 d9 8a cd 3e ba 08 95 be ec 39 65 3e 0a 2f 2c bd
       0.40144995 -0.2910822 0.22385377 -0.042037047
000320 84 0c ec be c1 3c d7 3e a2 3e b5 3c 43 06 56 3c
       -0.461033 0.4203854 0.022124592 0.013063016
000330 01 c0 e3 3e 5f 5b a6 ba ae bb a9 3d 64 7d 74 bb
       0.44482425 -0.0012692026 0.0828775 -0.0037306184
000340 65 6d 2a bc a0 24 93 3d f2 f1 d4 be ea d0 1d 3f
       -0.010402058 0.0718472 -0.4159084 0.616469
000350 ff 73 d8 bd 12 13 91 be b3 99 87 be b3 05 75 3d
       -0.105689995 -0.28334862 -0.2648445 0.05981989
000360 44 c3 ab bf 45 f8 ca 3e 1e 3a a0 be 5f 49 64 3d
       -1.3418965 0.3964254 -0.3129434 0.055734035
000370 f1 be 5e 3d 31 f9 1d bf 44 03 9c bd fa 67 75 3f
       0.054381315 -0.6170836 -0.0761781 0.9586178
000380 24 8d 53 3d bd 79 6e 3e 52 b7 41 3e 81 99 17 bd
       0.051648274 0.23288627 0.18917587 -0.037011627
000390 73 b6 8e bb 07 cf 22 3d fa 60 3a 3e 46 18 16 3e
       -0.0043552457 0.039748218 0.18201056 0.14657697
0003a0 ad a6 b3 3d d3 77 ae bc fe c3 8e be dd d5 14 bd
       0.08772025 -0.021297371 -0.27883905 -0.03633677
0003b0 64 ab 9f bc 7b 6e 0b 3e fe 3b 08 be 41 c1 81 be
       -0.019490905 0.13616364 -0.13304135 -0.25342754
0003c0 27 2e cb be 92 0d 64 bf 73 fc 4f be de 57 07 be
       -0.3968365 -0.89083207 -0.20311145 -0.13217112
0003d0 6e 89 55 bd 71 08 7e 3e bb 2f 8e be 03 f6 c3 bd
       -0.052133016 0.24807908 -0.2777079 -0.095684074
0003e0 03 1d b6 3e ad de b0 bc 75 57 d6 3e 5d bd be 3d
       0.3556901 -0.021590555 0.418636 0.09313462
0003f0 12 67 bb be d8 c9 93 3e 7c 40 36 be 91 a5 ca 3e
       -0.36602074 0.28864932 -0.17798036 0.39579442

nnmod.elemental_nets.H.0.bias f4 [64]
000000 99 64 39 3d cc 03 91 3d 67 ad 99 3c bd dd 2f bd
       0.045261953 0.07080802 0.018759442 -0.042936075
000010 9e cb 58 3d f8 18 dc 3d 92 36 ff 3c 7b 66 db bb
       0.05292856 0.1074695 0.03115395 -0.0066955662
000020 0d 48 4e 3d f0 67 a9 3c 3b f7 9b 3d e6 45 b1 3d
       0.05036168 0.020679444 0.07615515 0.0865591
000030 4b 75 3b 3d ff 52 cf 3c 56 7e c8 3c 6c 5f 2a bd
       0.045766156 0.02530813 0.024474304 -0.041594908
000040 e0 2a 9d bc 20 ea 07 3c b9 40 14 bd 62 b0 a2 3d
       -0.019185483 0.008295566 -0.036194537 0.079437986
000050 13 ab 95 bc 5c 67 92 3c 56 ea 65 bc 1a 6f 37 3d
       -0.018270051 0.017871551 -0.014032921 0.04478369
000060 5f c7 73 3d 6e 0c 52 3d 36 f8 ba bc 01 ae c5 3d
       0.059516307 0.051281385 -0.022823434 0.09652329
000070 1f 3f 7c 3d e9 53 3b 3d f0 83 6b bc 05 27 dc 3a
       0.061583634 0.04573432 -0.014374718 0.0016796297
000080 ab 6d 02 3b b2 e9 4a bd 87 58 17 bd 31 cc 31 3a
       0.0019901793 -0.049539275 -0.03694966 0.0006782441
000090 e2 f4 ee bb 98 06 02 bc ae 8b 76 3b 3d c2 8a 3c
       -0.007292376 -0.007936142 0.0037619877 0.016938323
0000a0 c8 9e cb bc 6b 8c 3c 3d 41 c7 b2 bc cc 5e a0 3d
       -0.024855986 0.04603235 -0.021823527 0.07830581
0000b0 7b 84 44 3d 54 1c 08 3d f2 c0 f2 3c e6 c9 f5 3d
       0.047977906 0.03323014 0.02963302 0.120014
0000c0 44 e1 0a bd f4 10 67 3c 38 3b 6e 3d 8c 18 97 3c
       -0.033906236 0.014103163 0.058161944 0.018444322
0000d0 42 0e 03 3d e8 39 9e 3c 87 53 c9 3d ae e8 af bc
       0.03199602 0.019314721 0.09830385 -0.021473255
0000e0 fd 51 b4 3d 84 97 92 3d 16 c9 dc 3c e2 13 35 bd
       0.088047005 0.071578056 0.026951354 -0.044208415
0000f0 f3 ed 7e 3d b5 2c 94 3d 7b ce 21 3d 33 f6 a7 3d
       0.062238645 0.0723509 0.039503556 0.08201256

nnmod.elemental_nets.H.1.weight f4 [64]
000000 36 c7 79 3f 7e 07 ad 3f b7 67 1b 3f 3c f4 aa 38
       0.97569597 1.3517911 0.6070513 8.151724e-05
000010 9d 66 a3 3f a7 19 b7 3f dd 03 ab 3f ed 57 8e 3f
       1.276569 1.4304703 1.3360554 1.1120583
000020 76 32 a2 3f 8c 13 c7 3f 79 f3 4c 3f 51 80 af 3f
       1.267165 1.555284 0.8005901 1.3711034
000030 1d 95 b4 3f e5 4f ac 3f be 2c ac 3f 51 1e 95 3f
       1.4108006 1.3461882 1.3451154 1.1649877
000040 61 a7 af 3f 23 15 9f 3f 9a 29 62 3f 9d e9 a2 3f
       1.3722955 1.2428325 0.8834473 1.2727543
000050 74 4a 38 3f 0e 28 87 b8 4f 1f 9c b7 7a 0b ab 3f
       0.71988606 -6.4447624e-05 -1.8611228e-05 1.3362877
000060 d7 8e b7 3f 08 f8 80 3f f7 2b 87 3f 04 94 93 3f
       1.4340466 1.0075693 1.0560292 1.1529546
000070 ec ad aa 3f 98 96 9b 3f 5d 2b 36 3f 63 1c dd 3d
       1.3334327 1.2155333 0.7115992 0.1079643
000080 a3 ce ae 3f 39 9a 9d 3f 15 28 a8 3f d1 62 94 3f
       1.365681 1.231269 1.3137232 1.1592656
000090 2f 34 ef 3c 8d 95 bf 3f 26 a7 86 3f c9 7c 9e 3f
       0.029199688 1.4967514 1.051976 1.2381831
0000a0 8b c5 7e 3f 5e 47 a3 3f 2e 95 a9 3f 57 55 2f 39
       0.99520177 1.2756155 1.3248651 0.00016721092
0000b0 78 bf 9c 3f 89 47 b0 3f 54 ac 0f 3f c9 af 80 3f
       1.2245932 1.3771831 0.56122327 1.0053645
0000c0 38 0b b5 3f 27 2b 97 3f 59 0a 8a 3f 79 ca 93 3f
       1.4144049 1.1810044 1.0784408 1.1546165
0000d0 93 05 ca 3f 13 ea 74 3f 8c 3a 39 3f 54 0c 98 3f
       1.5782951 0.9566967 0.7235496 1.1878762
0000e0 38 62 c3 37 a1 59 9e 3f 53 07 af 3f e1 8f 93 3f
       2.3291548e-05 1.2371103 1.367411 1.1528283
0000f0 fd 39 98 3f b7 ee 72 3f 7b c9 8c 3f b1 97 78 3f
       1.1892697 0.948955 1.0998987 0.9710646

nnmod.elemental_nets.H.1.bias f4 [64]
000000 e9 95 12 3d 3d 07 13 be 8f a7 cd be 3b 16 97 b8
       0.035787497 -0.1435823 -0.401669 -7.204382e-05
000010 31 a8 49 be 3e 01 2e be ed 55 27 3e c0 17 2e be
       -0.19693066 -0.16992661 0.16341372 -0.17001247
000020 b2 b9 79 3d 02 2b a3 3c 9e b8 db 3e 53 dc be 3c
       0.06096811 0.019917969 0.4291429 0.023298418
000030 b4 c8 1b bd 0e e5 b3 3d 76 2a 30 3e 4b 2b bc bd
       -0.038033202 0.08783923 0.17203698 -0.09187945
000040 52 fb 83 3d a2 aa ef 3d cf 62 3f be 10 e6 08 3d
       0.0644442 0.117024675 -0.18690036 0.03342253
000050 7c c7 85 bd b2 05 73 b6 f2 bb 8b 38 1a e2 b1 3d
       -0.06532189 -3.6213137e-06 6.663044e-05 0.086857036
000060 7a 70 2d 3e 4e 9d e1 3c 63 2e 99 3d 23 be 4f bd
       0.16937438 0.027540829 0.07479551 -0.050718438
000070 38 65 19 3d f7 17 60 3e a1 83 ed be f4 54 3e be
       0.037450045 0.21884142 -0.46389487 -0.18587095
000080 d3 43 f8 3d 81 9e 7f 3d 84 aa f9 3c b6 1e 04 bf
       0.121223114 0.06240702 0.030476816 -0.5160936
000090 69 03 4b bd 02 e9 2f 3d 20 90 b1 be 49 d2 02 3f
       -0.0495638 0.042946823 -0.3468027 0.5110212
0000a0 97 f3 ed bd e4 65 04 3f 84 a0 2b bd cc a4 50 37
       -0.11618727 0.5171797 -0.041901127 1.2436136e-05
0000b0 ba 31 b3 3a fa 18 03 3e 8e 28 ae be 55 19 59 3d
       0.0013671436 0.12802497 -0.34015316 0.053002674
0000c0 ac 99 6b bd 09 8e 44 3e 64 36 7d bc 76 1a 35 bd
       -0.0575196 0.19194807 -0.015454862 -0.04421469
0000d0 fe 88 d6 3d 50 5c a9 be 04 c5 cf 3d 7d 47 39 be
       0.10475348 -0.3307824 0.101449996 -0.18093677
0000e0 00 5d e9 37 8e d1 5c bd e8 a8 69 bd b0 78 5a be
       2.7819071e-05 -0.053910784 -0.057045847 -0.21335101
0000f0 08 54 8e 3e a9 a6 a6 3e f9 02 50 3e 13 ac 28 3e
       0.27798486 0.32549027 0.20313634 0.16471891

nnmod.elemental_nets.H.2.alpha f4 [1, 64]
000000 4d 48 8e 3f 11 8d 8b 3f 1a 8c 2a 3f af 98 01 00
       1.1115814 1.0902425 0.6662003 1.46608e-40
000010 03 d2 95 3f 28 66 90 3f 39 ab 93 3f d9 da 38 3f
       1.1704715 1.1281176 1.1536628 0.72208935
000020 41 e3 89 3f 51 9c 9c 3f e7 83 5c 3f 6b fd a0 3f
       1.0772477 1.2235204 0.86138767 1.2577337
000030 89 7f 8a 3f e7 e9 9a 3f f3 2c 8e 3f 04 a1 91 3f
       1.0820171 1.2102631 1.1107467 1.1377263
000040 30 62 a9 3f d0 3e a4 3f 56 b3 58 3f b8 fa 89 3f
       1.323309 1.2831669 0.84648645 1.0779638
000050 1b b7 20 3f 1b 67 00 00 6b e4 0c 00 e9 3c a8 3f
       0.62779397 3.6987e-41 1.183967e-39 1.3143588
000060 65 e6 87 3f 31 8c 78 3f 47 63 66 3f 49 f0 55 3f
       1.0617186 0.97088915 0.89995235 0.8356977
000070 9f e3 a3 3f bc 54 97 3f c1 b2 60 3f d8 e4 05 36
       1.280384 1.1822734 0.87772757 1.995175e-06
000080 ac 1c a1 3f 89 90 80 3f 48 4f 94 3f 18 cf 9c 3f
       1.2586875 1.0044109 1.1586695 1.22507
000090 bb 47 b3 34 fe 7d 87 3f 8b 78 84 3f ca 71 a7 3f
       3.339354e-07 1.0585325 1.0349287 1.3081601
0000a0 91 a6 7c 3f d9 26 9e 3f 02 c7 9e 3f d4 dc 9d a0
       0.9869166 1.2355605 1.2404482 -2.6742966e-19
0000b0 85 c0 94 3f f5 37 85 3f ca 2e fe 3e 5c 4f 77 3f
       1.1621252 1.0407702 0.49645072 0.9660547
0000c0 97 a7 91 3f 0f 22 88 3f 14 0f 84 3f 48 55 93 3f
       1.1379269 1.0635394 1.0317101 1.1510401
0000d0 80 56 80 3f da 47 83 3f 82 ad 36 3f 2f 87 9a 3f
       1.0026398 1.0256302 0.713585 1.2072505
0000e0 58 67 a0 00 aa c4 50 3f 4d 37 98 3f a2 75 8b 3f
       1.4730752e-38 0.81550086 1.1891876 1.0895274
0000f0 c5 a0 98 3f 36 6f 73 3f 69 a3 93 3f a2 86 81 3f
       1.1924063 0.9509157 1.1534244 1.0119212

nnmod.elemental_nets.H.2.beta f4 [1, 64]
000000 52 45 23 3d 86 43 be be 5e f1 a6 3c 52 de 00 80
       0.03986103 -0.3716089 0.020378765 -7.9754e-41
000010 0f a7 dc be 69 5f ef 3e c7 76 c6 3e d1 46 27 bf
       -0.43096206 0.4675248 0.38762495 -0.6534243
000020 03 2f e0 3e 44 a9 1b 3f b2 d2 92 3d 8b 31 d0 3e
       0.43785867 0.60805154 0.07169093 0.40662798
000030 48 e3 df 3e 37 3f c4 3e 63 90 c7 3e 23 db 57 3e
       0.4372809 0.3832948 0.38977346 0.21079688
000040 cb 63 c6 3e 88 20 94 3e ef e8 f5 bc 59 37 aa be
       0.3874801 0.2893107 -0.030018298 -0.33245352
000050 cd e7 a1 be 49 e2 00 80 93 14 13 80 0a 6b b9 3e
       -0.31622162 -8.1176e-41 -1.752255e-39 0.36214477
000060 c6 f3 05 3f 94 9d 24 be 97 c5 95 be c6 65 c9 be
       0.52325094 -0.16075736 -0.29252312 -0.3933546
000070 92 f3 bd 3e ad b8 74 be fd ee 9b be ef 8e 05 b6
       0.37099892 -0.23898573 -0.3045577 -1.9901743e-06
000080 73 95 e0 3e 15 0e 8e 3e 8c 6b ad 3e 3b e1 b5 3e
       0.4386402 0.2774512 0.33871114 0.355234
000090 de 17 b3 b4 48 bf ff 3e 8a 27 1a be 14 44 01 3f
       -3.3358714e-07 0.49950624 -0.15054145 0.50494504
0000a0 87 a3 79 3d d3 36 b8 3e 07 62 c5 3e d2 dc 9d 20
       0.060946967 0.35979328 0.3855135 2.674296e-19
0000b0 2f 64 8a 3e ba f5 d8 3e 45 18 a7 3c 33 b5 a3 3d
       0.2702956 0.42374974 0.020397315 0.079935454
0000c0 e5 d6 e3 3e 61 2a 88 3e 84 8d f3 3d 83 98 50 be
       0.4449989 0.26594833 0.11892226 -0.20370679
0000d0 86 dc 1a 3f d0 12 51 3d 6d ef f5 3d 40 a0 87 3e
       0.6049274 0.05104333 0.120085575 0.2648945
0000e0 7b 04 be 00 e1 60 fa be f2 d3 d4 3e a4 6a 69 be
       1.7450352e-38 -0.48902038 0.4156795 -0.22794586
0000f0 8a e2 f3 3e 7d ae 98 3d 1c d4 25 3e 3b 1a 10 be
       0.47633773 0.07455156 0.16194195 -0.14072506

nnmod.elemental_nets.H.3.weight f4 [64, 64]
000000 27 1b 32 3e 00 f9 76 be 73 77 64 3d a3 c5 a8 bd
       0.1739317 -0.24118423 0.05577798 -0.08240821
000010 70 c0 32 be 18 8f 97 3e 69 1d f1 be a3 e6 f7 3d
       -0.17456222 0.2960136 -0.4709275 0.12104537
000020 5d 50 88 bc f0 b0 cf 3d e3 4c a6 be 99 33 a1 3c
       -0.016639883 0.1014117 -0.32480535 0.019677924
000030 29 70 76 3e 64 b3 0d be 93 6e dd 3c 1a e1 d8 bd
       0.24066223 -0.13837963 0.027030265 -0.1058981
000040 01 5b 70 be 58 00 a9 be bd f0 1b be 34 da be 3d
       -0.23472215 -0.33008075 -0.15228553 0.09318963
000050 3f 43 1f 3e 2c 7d 0d 3e 8d f5 04 bd 5a 05 da 3c
       0.15552996 0.1381728 -0.032460738 0.02661388
000060 7f 8c d2 bd 91 9f ee 3c 38 1c e8 3d 55 e6 a6 3d
       -0.10280704 0.029128822 0.11333507 0.08149401
000070 19 f8 61 bd 3e 85 0b be 47 5b 97 3e 34 be 17 3d
       -0.055168245 -0.13625047 0.29561827 0.037046626
000080 6b 6e 5a be 0a 50 65 bd a8 95 71 3e 26 f0 f7 3d
       -0.21331184 -0.055984534 0.23592246 0.121063516
000090 6d c4 3f 3e 68 6c 9f 3d 20 be 43 be 88 14 30 3d
       0.18727274 0.07784349 -0.19115496 0.04298833
0000a0 bb 81 f8 bc 38 5a e8 bd c4 d9 dc be 95 fe b4 bd
       -0.030335298 -0.11345333 -0.43134892 -0.0883762
0000b0 4d 5e 98 be e4 da 8a bd b7 00 7c bc 83 63 12 3e
       -0.29759446 -0.06780031 -0.01538103 0.14295773
0000c0 36 38 5f be 2b 4b e0 bd 84 27 70 be 9e 1c 07 bc
       -0.21798787 -0.10951837 -0.23452574 -0.008246569
0000d0 e9 34 9b 3d 00 3f 1c 3e 45 98 4b 3e cf 9d da 3c
       0.07578451 0.15258408 0.19882305 0.026686577
0000e0 61 d5 e0 3d 8a 08 c5 3d 4e 7d 73 bd 7f ec 37 be
       0.10978199 0.09620769 -0.05944567 -0.1796131
0000f0 8f f0 44 bd 7f d1 a0 bd e7 7b 59 bc 52 1e 40 be
       -0.048080977 -0.07852458 -0.0132741695 -0.18761566
000100 a9 b2 09 3d 47 cf c2 3e 6c 88 2b be 0a 3b 0b be
       0.03361765 0.38048765 -0.1675126 -0.1359674
000110 ab 5b 2a be ce 0b 96 be 5b 5c 8f 3e 8c 80 e9 bd
       -0.16636531 -0.2930588 0.2800015 -0.114014715
000120 e8 75 b4 3d 0b 19 2f bd 54 57 3f 3e 06 82 b2 3e
       0.08811551 -0.042748492 0.18685657 0.34864825
000130 74 09 38 be 1d c6 0c be b4 a2 8c 3e 76 d1 19 3f
       -0.17972356 -0.13747449 0.27467883 0.6008524
000140 81 30 3f 3c 0c 54 d7 3d 67 ee 84 3e fb 83 1d 3e
       0.011669279 0.105140775 0.25963137 0.15382378
000150 4d 73 1b be 57 34 4a be fe c0 43 3d 73 dd e3 be
       -0.15180703 -0.19746529 0.047791474 -0.4450489
000160 2e bf d1 3e 76 3e 39 3e dc 77 93 bd fc 98 43 be
       0.4096617 0.18090233 -0.07200596 -0.19101328
000170 6b ba f7 bc 82 1e e7 be 0c f4 13 3d 51 b0 dc bc
       -0.030240258 -0.45140463 0.036121413 -0.026939543
000180 76 3c f9 ba 65 97 77 3e 8a 10 6d be 60 df f0 be
       -0.0019015211 0.24178846 -0.2315084 -0.47045422
000190 48 68 5e be 80 fc 60 3e 13 b6 7e 3e f0 a3 f9 3e
       -0.21719468 0.21971321 0.24874143 0.48757887
0001a0 c3 9b 4d be 40 de e3 3e b2 7a 9f 3e 7d 02 35 3e
       -0.2007895 0.445055 0.31148297 0.1767673
0001b0 54 b1 0c 3f 0d 7c 85 3d 7b c2 0f bb 7e a2 28 be
       0.5495808 0.065178014 -0.0021935988 -0.16468236
0001c0 12 03 06 bf 0f fa be bc 14 18 95 be 05 f0 82 bd
       -0.52348435 -0.023312597 -0.29119933 -0.06393436
0001d0 8f ba 69 be bf 3f c9 bd 84 8f f9 bd 67 fd 20 be
       -0.22825073 -0.09826612 -0.121855766 -0.15721665
0001e0 ce 74 91 bd 60 0c 75 3d 53 c9 d4 be d4 68 e3 bd
       -0.07102357 0.059826255 -0.41559848 -0.11103979
0001f0 05 3d 19 3f c0 57 a1 3c e8 3f 04 be a8 2e e6 3c
       0.59858733 0.019695163 -0.12915003 0.02809842
000200 17 60 59 bd 26 5a e6 bc 7f ac 0d bd 88 0f 56 bd
       -0.053070154 -0.028119158 -0.034588333 -0.052260906
000210 30 e4 71 be c3 05 94 be f1 f7 e1 3e 64 0f 2f be
       -0.23622203 -0.28910646 0.44134477 -0.17095715
000220 4e 4a 1f be 80 71 00 3d d4 a9 f3 3c b4 d6 13 be
       -0.15555689 0.031358242 0.029744066 -0.14437371
000230 2e 68 b2 bd 0f da 97 3d 58 a0 d4 3e c9 5f ae bd
       -0.08711277 0.07414638 0.41528583 -0.08514363
000240 91 18 07 be 6c 36 ba 3e c5 6a 49 be 6c 59 3d bd
       -0.13192965 0.36369646 -0.19669636 -0.046227857
000250 58 e9 f9 bc 86 e2 ab bd db ca 02 3e d6 ed bd 3d
       -0.030506775 -0.08392815 0.12772696 0.09273879
000260 75 1a 40 be 2b f3 3a 3e 1f b2 94 bd 58 11 48 3e
       -0.18760093 0.18256824 -0.072605364 0.19537866
000270 8f ca c5 3c d8 2b 41 be dc 64 ea bd b6 4f fd 3d
       0.024144439 -0.18864381 -0.11445019 0.12368719
000280 4a a6 14 bd 36 30 6a bd 48 a7 49 3e 37 bc 50 be
       -0.036291398 -0.057174884 0.19692719 -0.20384298
000290 6c 96 0e 3e e4 e8 7e 3e b3 a9 cf 3e e7 81 bc 3d
       0.13924569 0.24893528 0.40559158 0.092044644
0002a0 f8 b7 2b bd 54 b6 67 3d c0 39 95 be c1 6f c4 bd
       -0.041923493 0.056570366 -0.29145622 -0.09591628
0002b0 62 7d 98 be 74 56 89 bd 5f c8 51 3d 23 4f 4e be
       -0.2978316 -0.06705943 0.05121648 -0.20147376
0002c0 79 09 18 3c b2 a5 81 3e 5b 83 f1 bd f1 d9 cd be
       0.009279602 0.25321728 -0.11792632 -0.4020534
0002d0 f3 0f 84 be 4c 07 91 be f5 25 b5 3d e6 de 0d 3e
       -0.25793418 -0.2832588 0.0884513 0.1385456
0002e0 d3 07 47 bd 9d 4d f7 bd 3e d3 c5 bd 4b 32 79 3e
       -0.048591446 -0.120753504 -0.09659432 0.24335591
0002f0 d7 00 77 3e 42 ba e6 3c b6 14 f9 bd 40 d4 28 3e
       0.24121414 0.028164987 -0.121621534 0.16487217
000300 53 d3 05 3e 2e ff 78 3b 27 6d d5 3e f8 fd 9c 3d
       0.13068895 0.0037993896 0.4168484 0.07665628
000310 aa c7 82 be f4 98 ad 3d d9 26 08 be 79 7f 4a bd
       -0.25542957 0.08476439 -0.13296069 -0.049437974
000320 c1 b5 c6 3d 61 f0 63 be 05 81 c1 be 65 1a 0a 3d
       0.097026356 -0.22259666 -0.37793747 0.033716578
000330 36 47 a1 3d 8c 2e 8c 3d 83 36 55 bc d1 f2 e2 bd
       0.078749105 0.068448156 -0.013013485 -0.1108147
000340 7e ed 5e be ba cc 9f be 57 1b 09 bc 7b 4a c5 bd
       -0.21770284 -0.3121088 -0.008368335 -0.09633347
000350 ed 80 17 3d 95 75 b6 bd 50 24 14 3e 50 fe fd 3d
       0.036988188 -0.08909146 0.14466977 0.12402022
000360 af a9 02 be c8 c9 21 3e 5f 4b ea 3d 24 37 64 3e
       -0.12760042 0.1579963 0.11440157 0.2228666
000370 ee fc 37 3e 94 a4 50 3d 22 09 5e be 81 ec 43 3e
       0.17967579 0.050938204 -0.21683171 0.19133188
000380 8e 77 00 3e 06 a6 80 bd 05 10 a5 3e 75 98 9e 3e
       0.12545606 -0.062816665 0.32238784 0.3097569
000390 b8 11 9b 3c 9b ad d0 bd 1e 3a 45 3e fc d9 93 be
       0.018929347 -0.101893626 0.19260451 -0.28877246
0003a0 73 3f d1 3d 65 20 32 be 96 2a 11 bf eb 74 82 bd
       0.1021718 -0.1739517 -0.56705606 -0.063699566
0003b0 94 37 d5 bd 2d 15 43 be 6b 68 72 3d 7d 63 92 3e
       -0.10410991 -0.19051047 0.059181612 0.2859153
0003c0 69 91 85 3d 19 cf e9 bd 83 42 7b bd c4 14 f7 3d
       0.065218754 -0.11416454 -0.061342727 0.120645076
0003d0 80 8b 28 bd b9 67 2e 3e 8b b7 4a be 4a f6 22 3e
       -0.041148663 0.17031755 -0.19796579 0.15914264
0003e0 ad e9 3e bd 49 c5 81 bc 5c ce e4 3d 08 6d 30 3d
       -0.04660957 -0.015841143 0.111721724 0.04307273
0003f0 8c b8 01 be 76 f6 27 be 76 be cd bc 00 48 9d 3d
       -0.12668055 -0.16402611 -0.025115233 0.076797485

nnmod.elemental_nets.H.3.bias f4 [64]
000000 8e 5d d0 3c 4b d2 13 3e 2d 3f bf 3d ea c3 6e bd
       0.025435235 0.14435689 0.09338222 -0.058292307
000010 d2 92 d7 3d 46 44 78 bd 3d 5f 77 3c 5a ad db 3d
       0.105260506 -0.060611986 0.01509839 0.107264236
000020 ca 00 f6 bc 15 09 d4 bd 7f 2b 0e 3e 56 06 d1 3d
       -0.030029673 -0.10353295 0.1388378 0.102062866
000030 be 98 89 bd 3d 4f f9 3d d2 08 a4 3c 16 3f 87 3d
       -0.067185864 0.12173317 0.020023737 0.066038296
000040 c2 83 60 bc 87 a0 2b bd 13 f6 c7 3d 57 ba 5e 3e
       -0.0137032885 -0.041901138 0.09763732 0.2175077
000050 34 83 90 bd d6 c1 af bc 52 0d a6 3d c0 31 56 bd
       -0.07056275 -0.021454733 0.081080094 -0.05229354
000060 e6 85 7e 3e 38 c1 0e 3d c1 6a 10 bd 1b 3f 34 3e
       0.24855766 0.034852237 -0.03525806 0.17602198
000070 df 9d 20 3d 17 b0 98 bd b1 ce 5b bd a8 31 33 3e
       0.039213058 -0.074554615 -0.053663913 0.17499411
000080 03 23 cf bd ed b2 45 bd bf 2c 3c 3d c3 26 a0 3d
       -0.101141 -0.04826634 0.04594111 0.07819893
000090 21 0a 19 3e 96 a6 62 bd d1 8c 0f 3e fe 79 40 3e
       0.1494527 -0.05533465 0.14018561 0.18796536
0000a0 59 d5 cb 3c f8 45 dc 3d 40 64 8c 3e 98 5c 5e 3e
       0.024882006 0.10755533 0.27420235 0.21715009
0000b0 d7 73 f7 3d dc 1e 74 bd fe e2 f1 3d 52 78 74 3b
       0.120826416 -0.059599742 0.118108734 0.0037303162
0000c0 7a 50 1e bd 89 98 a4 3e 13 8e b3 3d ef bd 60 bd
       -0.038650967 0.32147625 0.08767333 -0.054868635
0000d0 9d f5 27 3e ef a9 db 3d 1e 9f 4e bd 8a 1d 2f bc
       0.16402288 0.10725772 -0.050444715 -0.010688195
0000e0 7d 79 50 bd 6f ab 00 3d e4 1f 5f 3e 46 cc b9 3d
       -0.05089711 0.03141349 0.21789509 0.09072165
0000f0 43 f2 03 bd df 9d 31 bd b9 69 f3 3b ae 40 c0 bc
       -0.03221346 -0.04336345 0.0074283746 -0.023468342

nnmod.elemental_nets.H.4.weight f4 [64]
000000 40 75 9c 3e 25 0a ef 3e ac 8e aa 3f 71 e2 9e 3f
       0.30558205 0.46687427 1.332479 1.2412854
000010 10 fc f1 3e f9 d0 b9 3f ab 9f a0 3f 9e f4 19 3f
       0.4726262 1.4516898 1.2548727 0.6013888
000020 a4 69 8d 3f 91 00 43 3f 43 07 84 3e 8e 6c 06 3f
       1.1047864 0.7617274 0.2578679 0.5250939
000030 97 7a 77 3f 92 4a e1 3e 4a 17 ba 3f 55 aa 9b 3f
       0.9667143 0.44002205 1.4538357 1.2161356
000040 1c e7 34 3f b5 0c 07 3f 29 1d 01 3f b2 16 c0 3f
       0.70665145 0.52753764 0.5043512 1.5006926
000050 1d 17 a0 3f 4d ff ce 3f 2e 7e 5b 3f 70 fb 12 3f
       1.2507054 1.6171662 0.8573941 0.57414913
000060 a8 3c 71 3f 40 7b 1b 3f 1b c4 6c 3e 1d f0 c8 3e
       0.9423318 0.6073494 0.23121683 0.39245692
000070 11 b5 d5 3e 30 70 08 3f e6 10 f5 3e 85 54 35 3f
       0.41739705 0.53296185 0.47864455 0.7083209
000080 20 b5 12 3f 79 70 dc 3f 58 87 0a 3f 25 21 64 3f
       0.57307625 1.7221824 0.5411277 0.89113075
000090 4f 8c 2d 3f e1 68 2f 3f f4 0a a2 3e 0c 1a ed 3e
       0.6779222 0.6851941 0.31648982 0.46308935
0000a0 f7 1a 91 3f da 31 15 3f 84 50 57 3f ff 0a 6d 3f
       1.1336354 0.5827919 0.8410723 0.92594904
0000b0 dc ef 78 3f 74 54 a8 3f 14 81 0d 3f dc b3 8d 3f
       0.97240996 1.3150773 0.5527508 1.1070514
0000c0 d3 de 8d 3e 3e 3e 49 3f cf 4d ad 3e c5 b3 cc 3f
       0.27709064 0.786106 0.33848426 1.5992361
0000d0 03 9f 33 3e c4 f1 3c 3f 6d bf c7 3f 8d fc 51 3f
       0.17541127 0.73806405 1.5605294 0.82025987
0000e0 72 0d d7 3f b4 95 85 3e 44 73 0e 3f a5 18 15 3f
       1.6800978 0.26090777 0.5564463 0.5824073
0000f0 32 c5 1d 3f 92 16 b1 3f 8f f6 d2 3e e9 42 27 3f
       0.6162902 1.3835013 0.41203734 0.6533647

nnmod.elemental_nets.H.4.bias f4 [64]
000000 cd 86 8e bd 44 57 21 3e 34 b3 7e be c8 16 93 3e
       -0.06959305 0.15755945 -0.24873048 0.28728318
000010 d5 c9 ed bd 2d 40 9f 3e 13 23 a8 bd 0e 35 d3 be
       -0.11610762 0.3110365 -0.08209815 -0.41251415
000020 e0 62 77 3e 86 a9 ca 3e 34 cf 8d 3d a0 c6 af be
       0.24158812 0.3958246 0.069242865 -0.34331226
000030 cb ed a0 3e 7e 1a 85 bd 16 7c ce bd ff bc 55 be
       0.31431422 -0.064991936 -0.10082261 -0.20872878
000040 b4 c9 95 be 76 61 e5 3e 67 82 2e 3e 03 8e bd be
       -0.2925545 0.4480092 0.17041932 -0.3702241
000050 7e b0 f3 3e f4 23 e6 bd a3 40 a2 be 80 6d b8 3d
       0.4759559 -0.11237326 -0.3168994 0.090052605
000060 c4 bc 85 be 87 fd c9 3c 13 6d f4 3c 35 f2 c7 bd
       -0.2612058 0.024657024 0.029837167 -0.09762994
000070 fc 5c ca 3e b8 34 39 3e 35 b2 19 3f 84 d7 34 be
       0.39524066 0.18086517 0.6003755 -0.17660338
000080 ca 78 74 3e 0a f3 00 3f 32 aa 7e 3e 61 c8 94 be
       0.23874202 0.5037085 0.24869612 -0.29059127
000090 0b e6 bc 3e b0 32 56 3e 14 70 17 be 02 ee 82 bc
       0.3689426 0.20917773 -0.14788848 -0.015982632
0000a0 a8 61 e3 bd b7 11 94 3e 65 be 6b be 30 d6 93 be
       -0.11102611 0.28919765 -0.23021848 -0.2887435
0000b0 74 57 7e be 8e 2f 09 3e 5b 2c bd be 48 94 e5 bd
       -0.24838048 0.13397047 -0.36947903 -0.11209923
0000c0 38 23 9c 3c e9 77 d9 be 71 34 bb 3e f5 a7 f2 be
       0.019059762 -0.42474297 0.36563447 -0.47393766
0000d0 2f cc 23 bd 41 31 c4 be ad 0f 58 3e 89 07 82 3e
       -0.039989647 -0.38318828 0.2109973 0.25396374
0000e0 a9 4f 12 3e 85 28 7c 3c 49 e3 89 be 6e 75 f0 be
       0.142882 0.01539052 -0.26931217 -0.46964592
0000f0 8b 5e 6c 3e c9 5e bb 3d 69 7d fd be 2f c8 79 3e
       0.2308294 0.09148938 -0.49509743 0.2439277

nnmod.elemental_nets.H.5.alpha f4 [1, 64]
000000 43 91 50 38 34 df bd 83 18 fa a2 3f 05 54 8e 3f
       4.972635e-05 -1.11596665e-36 1.2732573 1.1119391
000010 ad 2c c3 83 31 af af 3f e4 77 97 3f 60 5c 8a b7
       -1.1471327e-36 1.3725339 1.1833463 -1.6493897e-05
000020 7c 6a 8b 3f 01 7e 5d 3f 35 3d d9 03 c8 cd 3b 80
       1.0891871 0.8652039 1.2768166e-36 -5.492115e-39
000030 e8 04 87 3f ce 0d 5f 3d 78 26 af 3f b5 26 73 3f
       1.0548372 0.054456525 1.3683615 0.9498094
000040 59 10 d3 3e 50 b3 41 b3 12 d2 0e 80 b3 7a 9f 3f
       0.4122341 -4.5099398e-08 -1.361056e-39 1.245932
000050 c2 9c a7 3f f6 85 bf 3f a5 f1 84 3f 09 b3 13 37
       1.3094714 1.4962757 1.0386244 8.803568e-06
000060 cc 97 84 3f e5 4f ea 3e c6 b7 6b 80 69 03 3f 34
       1.0358825 0.4576408 -9.892324e-39 1.7789502e-07
000070 dd be 04 3f bc c0 a1 35 ae 2a 2d 3f 1b 38 02 80
       0.51853734 1.2051528e-06 0.6764325 -2.03798e-40
000080 23 54 c6 b5 16 9e c8 3f 78 58 8a 37 ba d4 73 3f
       -1.4776637e-06 1.5673244 1.6492078e-05 0.9524647
000090 ac 50 d1 3d af 57 02 80 f4 e7 0a 00 c3 86 0f 80
       0.10220465 -2.15126e-40 1.001564e-39 -1.425876e-39
0000a0 50 a4 8d 3f f3 e9 3c 3f 28 77 74 3f 4c e6 83 3f
       1.1065769 0.7379448 0.9549432 1.0304656
0000b0 5a f5 69 3f c5 54 99 3f ee f1 49 3f 5e 63 90 3f
       0.9139 1.1978995 0.7888478 1.1280324
0000c0 b0 11 6a b4 fc 6a 75 3f 43 03 da 37 cb 82 ed 3f
       -2.1799383e-07 0.9586637 2.5989144e-05 1.855554
0000d0 57 ed a5 b4 9a 86 73 3f 98 57 b4 3f 67 be 5f 3f
       -3.0906332e-07 0.9512726 1.4089231 0.87399906
0000e0 1d 8b a8 3f ed 92 10 04 38 0f 37 83 46 61 13 3f
       1.3167454 1.6994584e-36 -5.3796337e-37 0.575703
0000f0 e6 2d 40 b7 3b 11 9f 3f 03 d8 0b 80 63 c9 e2 3e
       -1.1454778e-05 1.2427133 -1.087681e-39 0.4429427

nnmod.elemental_nets.H.5.beta f4 [1, 64]
000000 44 d0 05 04 52 18 16 b7 23 97 1b bf fd df 21 bf
       1.5729706e-36 -8.946359e-06 -0.6077749 -0.63232404
000010 c4 da 47 b7 d2 62 94 bf f6 31 86 3e 83 f0 56 83
       -1.191226e-05 -1.1592658 0.26209992 -6.316504e-37
000020 f7 ca 26 3e d2 57 b2 bd d1 7e 81 37 b2 8e 42 00
       0.16288362 -0.08708157 1.5437052e-05 6.112332e-39
000030 bb 5a 96 3e 6f 1f a5 36 1d 7d fe 3e 6c 7b d0 be
       0.29366097 4.9210425e-06 0.4970483 -0.40719163
000040 6d e7 11 be a9 1e 74 b3 bc 25 01 80 52 8e 7c bf
       -0.14248438 -5.6838562e-08 -1.05372e-40 -0.98654664
000050 05 54 8e 3f 9c 73 28 3f 90 40 71 3e da 57 18 04
       1.1119391 0.65801406 0.23559785 1.7907854e-36
000060 cc e3 1a 3e 13 67 fe bd d3 3a 1c 80 c7 89 0c 34
       0.1512596 -0.124220036 -2.592496e-39 1.3088639e-07
000070 dc 58 b4 bd 47 0e 3f 84 32 92 3b be 9e 44 00 00
       -0.08806011 -2.2458498e-36 -0.18317488 2.4615e-41
000080 95 f9 fb 04 9c 17 40 3f d7 c0 54 83 45 25 12 be
       5.923902e-36 0.75036025 -6.252257e-37 -0.1427203
000090 0d 6e 87 35 af 2e 08 80 cd a8 12 00 bb 1b 23 80
       1.0090313e-06 -7.51431e-40 1.713593e-39 -3.22419e-39
0000a0 a3 d2 21 3e 6f 83 6d be 76 05 25 be 95 8f 77 be
       0.15803008 -0.23194669 -0.16115364 -0.24175866
0000b0 ee 2f 69 be c6 31 b5 3e 3b 32 cd 3d 0b bf 13 3e
       -0.2277219 0.35389537 0.10019346 0.14428346
0000c0 3e 87 64 b4 d7 11 b7 be c1 66 1e 83 da d3 41 3f
       -2.1283356e-07 -0.35755798 -4.6549983e-37 0.75713885
0000d0 8a ea a5 b4 52 9f 52 3e 17 26 40 3f 3c 86 12 bc
       -3.0904295e-07 0.20568588 0.7505812 -0.008943137
0000e0 80 7e 2e 3f 21 ee ba 37 bd 64 86 b7 1f 53 1d be
       0.68161774 2.2283815e-05 -1.6020955e-05 -0.1536374
0000f0 75 18 85 83 67 7e f7 3e a7 bb 03 00 00 6c e4 b4
       -7.8226525e-37 0.48338625 3.42823e-40 -4.254689e-07

nnmod.elemental_nets.H.6.weight f4 [1, 64]
000000 df e5 0c 04 4e 0a de 82 a8 cf d2 be 92 ef 9b 3e
       1.6562473e-36 -3.2625883e-37 -0.41174054 0.30456215
000010 30 46 73 03 e4 13 1a 3f 46 0a 35 3e 8f 1f 2f 01
       7.1491853e-37 0.601866 0.176797 3.2165066e-38
000020 18 f4 d4 bd 2a 8d d4 3d d0 56 21 84 10 eb 7b 36
       -0.1039812 0.103784874 -1.8965321e-36 3.753874e-06
000030 38 60 60 be fc f9 a4 36 8a 6a c3 3e db 98 d2 bd
       -0.21911705 4.916683e-06 0.3816722 -0.10283061
000040 5d 26 04 be ea fd 47 b3 93 94 ff 36 17 4f f9 be
       -0.1290526 -4.656423e-08 7.6168885e-06 -0.48693153
000050 c4 b5 07 bf b4 1e 00 3f 76 72 5b 3e 23 95 f1 82
       -0.5301173 0.5004685 0.21430382 -3.5497368e-37
000060 fe ea 33 3e c9 ca ea bd bc 43 21 37 33 f9 0b 34
       0.17570111 -0.114644594 9.612118e-06 1.3036042e-07
000070 c0 aa b0 3d ee 50 a3 84 0c 78 43 3e 2d ff 85 37
       0.08626318 -3.8395438e-36 0.19088763 1.5973661e-05
000080 60 9c af 82 17 46 13 bf 5b 13 79 82 80 0c 03 be
       -2.5803694e-37 -0.57528824 -1.8299186e-37 -0.12797737
000090 e3 6f 88 b5 54 35 d1 37 62 a6 a8 b7 3f d1 37 37
       -1.0165353e-06 2.4939574e-05 -2.0104639e-05 1.0956369e-05
0000a0 36 5a fa 3d 55 96 6b 3e d2 98 00 be 48 bc 34 be
       0.122242376 0.23006566 -0.12558296 -0.17649949
0000b0 c9 c0 be bd f5 d3 57 be 3f 41 0a 3e 3e 6f 1d 3e
       -0.093141146 -0.21076949 0.13501452 0.15374467
0000c0 cc 82 64 34 9b ab 7e be f8 a9 49 81 a0 d6 52 3f
       2.1281738e-07 -0.2487015 -3.7039816e-38 0.8235874
0000d0 1a fc a5 34 e0 43 68 3e 46 4e cc be 91 8e 6f 3d
       3.0917073e-07 0.22682142 -0.39903468 0.05848557
0000e0 3d 83 a2 be c5 2f cf 83 f9 f5 b9 81 3f f8 18 be
       -0.31740752 -1.2177334e-36 -6.831122e-38 -0.14938448
0000f0 67 6f 14 80 b1 25 8a be cc 91 05 38 31 83 e4 b4
       -1.876674e-39 -0.2698188 3.1845455e-05 -4.2563764e-07

nnmod.elemental_nets.C.0.weight f4 [64, 48]
000000 3e a5 5b be 5c d8 f5 3d 99 a0 0b bc b4 b3 c7 bc
       -0.21449754 0.12004158 -0.008522176 -0.024377681
000010 10 11 92 bd b8 a6 42 be aa be e9 3d 23 d1 c6 bd
       -0.07132161 -0.1900891 0.114133194 -0.097078584
000020 95 ed be 3d c7 9b e7 bd cc c0 bd bd 10 ef a5 bc
       0.09322659 -0.11309009 -0.09265289 -0.020255595
000030 26 0f 67 be de 81 f9 bd f7 7d f9 3d a4 e6 8d ba
       -0.22564372 -0.12182973 0.12182229 -0.0010826183
000040 4b 65 02 3e 0f 7f 55 3e 02 ab 31 3e cb 27 d0 3b
       0.12733953 0.2084925 0.1735039 0.0063524
000050 6a e2 ba 3d 23 5a 45 3e 9f 60 24 be bc b7 7f 3d
       0.09125216 0.19272666 -0.16052483 0.062431082
000060 a3 ec 0c 3e 58 9a 55 be 85 fa 6e be eb 6a 59 be
       0.13762145 -0.20859659 -0.23337753 -0.21232192
000070 c8 45 4b be ae c7 51 3c 6f 12 08 3e 40 32 cb 3d
       -0.19850838 0.012803955 0.13288282 0.09921694
000080 bd fa d0 bd ca e3 b0 bd 7f e5 40 3e 2e 7c 86 3c
       -0.102040745 -0.08637197 0.18837546 0.016416635
000090 a2 b4 32 be 8d da e5 bd 6c 53 3d be 82 71 a9 bd
       -0.17451718 -0.11223326 -0.18488854 -0.08273603
0000a0 0a b4 61 be 03 65 84 bd 6e d5 35 3e db bb e1 3d
       -0.22041336 -0.06464579 0.17757198 0.11022159
0000b0 10 3a 4b 3e 9b 5c b3 bd a5 c4 21 3e 8d 0d 48 bc
       0.19846368 -0.087578975 0.1579767 -0.012210262
0000c0 ac 78 3c bd 6e 97 5c 3e 3e 7c 22 3e 57 a6 ac bd
       -0.04601352 0.21542141 0.15867707 -0.08430164
0000d0 cc 09 0e be 52 e3 31 bd de 08 23 bc 5e eb 87 bd
       -0.13870925 -0.04342968 -0.009950845 -0.066366896
0000e0 a7 c5 ef bd e9 21 0e 3e 3f e7 25 be 84 98 8d 3e
       -0.11707621 0.13880123 -0.16201495 0.27655423
0000f0 63 ad f5 3c 16 03 86 3d 1e 50 1f 3e 53 f6 29 be
       0.029989904 0.06543557 0.15557906 -0.16597871
000100 f4 1b 18 be 84 a9 83 3e 4a d7 0b 3e dc 41 84 3e
       -0.14854413 0.25715268 0.13656345 0.25831497
000110 a1 09 01 3e e0 8a 1b 3e 6b c7 2d bd 46 02 53 3e
       0.1260133 0.15189695 -0.042426508 0.20606336
000120 3d a5 db 3d 50 fd 2f bd b9 fa 89 3d b1 d1 42 be
       0.10724876 -0.042966187 0.06737275 -0.19025303
000130 40 2f 3b be dd 42 0b 3b 8c b0 b6 3d cb 5a b2 bd
       -0.18279743 0.002124957 0.089203924 -0.08708724
000140 4e ae 99 bd 24 ad 85 3d 7e 73 b7 bd 3e fd 3e 3c
       -0.07503949 0.065271646 -0.08957575 0.011657057
000150 d0 d5 a4 bd 05 48 10 3e 3e 0a 99 bd 5a 06 60 3e
       -0.08048594 0.14089973 -0.07472657 0.21877423
000160 05 5e 43 3d 83 66 07 be ee 77 80 bd dd b8 85 3e
       0.047697086 -0.13222699 -0.06272875 0.26117602
000170 fa 81 ea 3d ea 15 44 3e 0c b7 04 be 14 de 76 3e
       0.11450572 0.19148985 -0.12960452 0.24108154
000180 fa a1 81 bc a6 2a 2d 3e 48 e5 5e be 08 0a 88 3d
       -0.015824307 0.169108 -0.21767151 0.06642538
000190 ae 66 3f 3e c6 33 07 3d 92 3f 6a 3e 80 b6 08 3c
       0.18691513 0.03300836 0.22875813 0.008344293
0001a0 1a ca eb 3d 6a c6 cd bd 96 de 9e bd c0 03 ba bd
       0.11513157 -0.1004761 -0.07757299 -0.090827465
0001b0 eb da 57 3e 71 13 56 3e 69 dd 42 3e 60 48 71 3e
       0.21079604 0.20905854 0.19029774 0.23562765
0001c0 51 4d 4d 3e 42 73 48 be c4 6e bd 3d a8 6e 4c be
       0.20049025 -0.19575217 0.092496425 -0.19964087
0001d0 81 1d 37 3d 08 b3 93 bd 7b af 74 3d a8 13 38 be
       0.04470587 -0.07211882 0.059737664 -0.17976248
0001e0 7e 0d 2c 3e a4 0f c7 3c 79 db 89 3d 47 e9 08 bd
       0.16802022 0.02429945 0.06731314 -0.033425596
0001f0 de 02 24 3e a0 d5 de 3c 28 4c 39 be ee ca e5 bc
       0.16016719 0.027201474 -0.18095458 -0.028050866
000200 4b a1 4c 3e 28 30 cc bd 92 59 02 be a8 5d 56 3e
       0.19983403 -0.099701226 -0.12729481 0.20934165
000210 92 33 a2 b9 27 a3 dc bd 61 35 a6 3d a3 ec 8c 3c
       -0.0003093747 -0.10773306 0.0811565 0.01720268
000220 57 eb f9 3d f4 32 0d 3e 75 99 3f be 6e 75 f0 bd
       0.12203091 0.13788968 -0.18710883 -0.11741148
000230 bf 0a 00 3e b2 a9 57 be cc e7 a1 bd 10 bd ca 3d
       0.125041 -0.21060827 -0.0790554 0.09899342
000240 21 55 4d 3e 60 09 33 bc 34 57 05 3d 4b 82 bd 3d
       0.20052005 -0.010927528 0.032553867 0.09253367
000250 49 39 26 3e 4a 43 16 3e 3c f4 2a be 52 af 0f 3e
       0.1623279 0.14674106 -0.1669473 0.14031723
000260 23 3c 03 bd a2 e7 3e be fd 5c 22 3e 4d 8d 34 be
       -0.032039773 -0.18643048 0.15855785 -0.17632027
000270 8a 52 27 3d 1f 33 1a bd 08 cc 5d 3e c9 21 8a 3d
       0.0408502 -0.03764641 0.21659863 0.06744725
000280 cd 4e 34 3e 89 79 0b 3e 58 82 12 3e d2 46 27 3e
       0.17608185 0.1362058 0.14307535 0.1633561
000290 f4 cd 4f 3e f2 c5 c8 3d 0b e1 44 be 0c 74 b3 bd
       0.20293409 0.0980338 -0.19226472 -0.087623686
0002a0 45 5c 19 be 39 94 1e be 22 98 1e be 98 96 1b be
       -0.14976604 -0.1548623 -0.15487722 -0.15194166
0002b0 4e e2 49 3e 47 4a 1c be a9 73 44 be 32 87 44 be
       0.19715235 -0.1526271 -0.19184746 -0.19192198
0002c0 2a e4 1f 3e 94 9d 21 3e 11 a4 00 3e 34 c0 ec 3d
       0.15614381 0.15782768 0.12562586 0.11560097
0002d0 55 2a 5a 3e 48 55 13 bd 60 48 f1 bd 23 09 a1 3c
       0.21305211 -0.035970002 -0.117813826 0.019657677
0002e0 3d 04 1a 3c 2a 7a 6a 3e 5f b3 2d be ba 46 fd 3d
       0.009400425 0.22898164 -0.16962956 0.12367006
0002f0 62 c8 14 3e e7 e7 12 be 9a a2 60 be ee 29 a4 bd
       0.14529565 -0.14346276 -0.21937028 -0.0801581
000300 67 2b 50 3d a0 78 e7 3d 10 83 1b 3d 51 3a 82 be
       0.05082264 0.11302304 0.037966788 -0.25435117
000310 a7 bd 1b bd eb 74 82 3d b5 1f 52 bd a3 bf 29 bc
       -0.038022663 0.063699566 -0.05129977 -0.010360631
000320 e1 82 0e 3e 03 3e 20 be 20 d8 4c be 99 0d 1d 3e
       0.13917114 -0.15648656 -0.2000432 0.15337218
000330 15 75 0f be 90 d2 91 3d e5 14 12 3e 25 86 21 3d
       -0.14009507 0.0712024 0.14265783 0.03943457
000340 0b 35 0c be 2a 89 0b 3d 90 65 00 be ad af 0f be
       -0.1369211 0.034066357 -0.12538743 -0.14031859
000350 4f be 88 bd 08 c6 5e 3d 31 93 42 3e 04 3e a0 3d
       -0.066769235 0.054388076 0.19001462 0.078243285
000360 dd 48 51 3e e9 44 fc 3d fd 69 6e bd 68 d8 4a 3e
       0.20437951 0.12317831 -0.058206547 0.19809115
000370 9b b8 4e 3e 32 20 32 be 59 4f b0 3d 98 1a e9 bd
       0.20187609 -0.17395094 0.08608884 -0.113820255
000380 27 25 55 be d9 55 56 3d b5 57 2c be 72 7d 8b 3d
       -0.20814954 0.052327964 -0.16830333 0.06811036
000390 d2 b2 31 3e 4a 45 eb 3a 88 7c e7 3d 34 ad a1 3c
       0.17353371 0.0017949727 0.11303049 0.01973591
0003a0 4b d3 61 3c 04 1c 34 3e b4 81 6c bb d9 98 27 be
       0.013783286 0.17588812 -0.0036088051 -0.163669
0003b0 d8 a0 7b be ca 26 02 3e 47 ef 07 3e c5 df 3f be
       -0.24573076 0.1271011 0.13274871 -0.18737705
0003c0 d9 a0 fb bd 72 00 8b be 7d 34 90 be 9f f3 12 be
       -0.12286539 -0.27148777 -0.28165045 -0.14350747
0003d0 c1 1f 27 be 84 72 77 3d ac 83 33 3d ff c2 2d 3d
       -0.16320707 0.060411945 0.043826744 0.04242229
0003e0 a8 5a b5 bc 70 78 13 3e 36 ca dc bb fd 67 19 bd
       -0.022137955 0.14401412 -0.0067379726 -0.037452687
0003f0 52 f7 30 3e 5a 22 4d be 8a cf a7 3d f0 12 2f bc
       0.17281845 -0.20032635 0.08193882 -0.010685667

nnmod.elemental_nets.C.0.bias f4 [64]
000000 71 0d d7 3d 72 23 45 3e c9 b1 d5 bd 3e 98 0f be
       0.105006106 0.19251803 -0.104343005 -0.1402292
000010 f0 5d d4 bc f7 a8 07 be 79 9d b0 3d b3 96 0c 3e
       -0.0259237 -0.13248049 0.086237855 0.13729362
000020 cf 3f 98 3a f6 15 19 bc 83 c1 c6 3d 29 ec 73 3d
       0.0011615696 -0.009343615 0.09704878 0.05955139
000030 3e 0f 11 be ac 3e 8d bd 49 b9 0a 3e d3 f5 02 3d
       -0.1416597 -0.06896719 0.13547243 0.031972717
000040 78 b0 7b bd 29 6a fb 3d a6 6a 5b 3d 57 0b 91 bd
       -0.06144759 0.12276108 0.053568505 -0.07082241
000050 47 e4 10 be 00 fc d5 bd e6 38 b7 3d 20 e4 4a be
       -0.14149581 -0.10448456 0.089463994 -0.19813585
000060 f3 93 20 be 0e 3b d2 3d 9c 74 f6 3c 8c e4 0e be
       -0.15681438 0.1026517 0.0300849 -0.13954371
000070 7d 69 c7 bd 67 a9 92 bd ae ba 86 3d 73 0c 50 3d
       -0.09736917 -0.07161217 0.06578575 0.050793123
000080 15 48 2c bd e4 7d 8d 3d 4a 50 e2 3d d3 7f cf 3d
       -0.04206093 0.06908777 0.1105047 0.101318024
000090 4f 2c e8 3d 40 f2 1c 3c 59 e8 9d bd 9d 67 37 be
       0.11336576 0.009579241 -0.077103324 -0.17910619
0000a0 b5 f0 99 3d e5 60 22 3e ef 1e 2d be c3 12 86 bc
       0.07516614 0.15857275 -0.16906331 -0.016366368
0000b0 46 70 6b bc 85 11 e4 3d bf ad 1d be 60 40 1d 3e
       -0.01437003 0.11136154 -0.1539831 0.15356588
0000c0 07 a3 a4 bd 6f 6d 9c 3c fe de 1a bd ea b9 28 3d
       -0.080389075 0.01909515 -0.03781032 0.041192926
0000d0 da 3c 0c bd b2 c5 44 be 8c 1f c5 3d 57 4a 38 3d
       -0.03423772 -0.1921604 0.09625158 0.04499277
0000e0 93 48 0c 3e d2 19 c4 3d 3a 17 9e bd 37 e6 c9 bd
       0.1369956 0.09575237 -0.07719274 -0.09858363
0000f0 dc 99 f5 bc 54 28 05 be e3 25 28 3e e5 73 ed 3c
       -0.029980592 -0.13003665 0.16420703 0.028985927

nnmod.elemental_nets.C.1.weight f4 [64]
000000 59 e4 73 3f 54 28 85 3f 5c 55 76 3f 8c ca 76 3f
       0.95270306 1.0402932 0.96224 0.9640281
000010 cc 4c 6d 3f 06 35 7e 3f 0e f7 79 3f 60 c5 71 3f
       0.9269531 0.9929966 0.976426 0.94441795
000020 7e 25 6f 3f 8f c9 6f 3f 00 5d 69 3f 46 db 6e 3f
       0.93416584 0.9366693 0.9115753 0.93303335
000030 a6 c0 77 3f f9 81 6a 3f c7 2d 88 3f 6c f9 76 3f
       0.96778333 0.9160457 1.063897 0.9647434
000040 09 a9 6a 3f 93 ab 74 3f 86 7d 6e 3f ce f9 65 3f
       0.9166418 0.955743 0.93160284 0.89834297
000050 98 0f 72 3f 49 9e 71 3f 20 a0 72 3f ba 76 83 3f
       0.94555044 0.9438215 0.9477558 1.0270607
000060 93 d0 83 3f e1 a5 81 3f a3 55 74 3f e4 a5 75 3f
       1.0298027 1.0128747 0.9544317 0.95956254
000070 4c ab 76 3f 79 b5 73 3f f9 76 73 3f 26 f9 78 3f
       0.9635513 0.9519878 0.9510341 0.9725517
000080 56 8a 66 3f 84 72 77 3f ea 43 75 3f 62 36 74 3f
       0.90054834 0.9665911 0.95806754 0.9539548
000090 f3 12 73 3f f5 83 78 3f b5 80 65 3f a4 3e 7f 3f
       0.9495079 0.9707635 0.89649516 0.99704957
0000a0 54 75 7f 3f eb 3d 76 3f fc dc 7e 3f 6b 93 6b 3f
       0.99788404 0.9618823 0.99555945 0.92021817
0000b0 28 f8 71 3f 46 47 79 3f 30 cd 71 3f e3 79 6c 3f
       0.9451928 0.9737438 0.94453716 0.92373484
0000c0 b0 0b 72 3f 2d df 6e 3f c9 01 73 3f df 8c 70 3f
       0.94549084 0.9330929 0.949246 0.9396495
0000d0 3d 78 78 3f 8c ea 8d 3f ea ec 8a 3f 82 9b 69 3f
       0.9705847 1.1087203 1.085355 0.9125291
0000e0 e9 55 72 3f 0c 97 6d 3f 3d 89 6e 3f e6 d3 79 3f
       0.9466234 0.92808604 0.9317816 0.97588956
0000f0 09 9e 73 3f 22 0c 7d 3f a1 cd 7c 3f 0e 08 70 3f
       0.9516302 0.9884664 0.98751265 0.9376229

nnmod.elemental_nets.C.1.bias f4 [64]
000000 57 88 91 3b 82 66 b2 3d 7a 70 4d bd 71 ce af bc
       0.004441302 0.08710958 -0.050156094 -0.021460744
000010 99 03 74 bd 1c d3 8d bc df 9c 52 3d fe f5 8f 3c
       -0.059573743 -0.017312579 0.051419135 0.017573353
000020 df a6 88 bd 86 54 88 3c 93 ee 45 bc 88 ca 2f 3d
       -0.06672453 0.016641866 -0.012080806 0.04291776
000030 5e 62 48 bc cb 0f 8d 3c 81 50 c4 3d a6 e0 9a ba
       -0.012230484 0.017219445 0.095856674 -0.0011816218
000040 2c 5d 76 3d 69 45 23 3b 8e 34 2c bd 23 f9 b1 3d
       0.06014745 0.0024913198 -0.042042308 0.08690097
000050 02 c3 ad 3c b1 ea 45 3c ea 6e 83 3c fc 08 5b bd
       0.021211151 0.012079881 0.016044099 -0.053475365
000060 67 4a 54 bd 98 12 6c 3d 9c 17 0d bd 2b 19 90 3b
       -0.051828768 0.05763492 -0.034446344 0.0043975315
000070 b5 42 ac bc 3d 55 3e bd ee 1e 2d bd 59 ff 12 3c
       -0.021027902 -0.04646801 -0.042265825 0.008972012
000080 fb 03 e3 3c 96 48 53 3d d0 01 81 bc 44 f6 8d bc
       0.027711859 0.051582895 -0.015747935 -0.017329343
000090 02 66 8b bc 36 a3 78 bc fd 62 a1 3d 08 14 a7 bc
       -0.017016415 -0.015175631 0.07880209 -0.020395294
0000a0 8c 59 1e 3d 11 fc aa bb a9 a4 df bc 35 5d 4b 3d
       0.038659617 -0.005218037 -0.027300196 0.049649436
0000b0 b9 05 01 3d 56 e3 32 3c 98 29 8a 3c 66 e4 48 3c
       0.0314996 0.010918459 0.016865537 0.012261486
0000c0 dc b0 39 bd 7d 34 10 bd ec dc e2 3c 55 9f 06 bb
       -0.045334682 -0.035206307 0.027693234 -0.0020541747
0000d0 70 0e de 3c fa 6e 1f be 27 4d 40 3e 65 06 b5 bd
       0.027106494 -0.15569678 0.18779431 -0.0883911
0000e0 d3 95 db bb 4b ef ce bc b2 7a 9f 3c ac b7 e3 bc
       -0.00670121 -0.025260588 0.019467685 -0.027797543
0000f0 4d 04 b6 bc 67 f3 77 bc 4b 0b bc 3c ca f9 1e bd
       -0.022218848 -0.015133715 0.022954604 -0.038812436
