examples/sgnn/model1.pth (torch, 20196 bytes, 11 tensors)

fc0.0.weight f4 [40, 52]
0	0xbd750456	-0.05981859
1	0xbd06a0d6	-0.03286823
2	0x3de414be	0.11136769
3	0x3dc8d6e1	0.0980661
4	0xbcaa40d2	-0.020782862
5	0xbcceb88c	-0.025234483
6	0x3e6c7c3e	0.2309427
7	0xbe623575	-0.22090705
8	0x3e8d473e	0.27593416
9	0xbd9b7dd2	-0.07592358
10	0xbd0ebf26	-0.034850262
11	0xbd8f225e	-0.06988977
12	0xbcb686f2	-0.022281144
13	0x3d6d35ff	0.057912823
14	0x3e2bc581	0.1677456
15	0xbec395d1	-0.38200238
16	0xbd9efeef	-0.077634685
17	0xbd8f6beb	-0.070030056
18	0xbd2531ca	-0.040330686
19	0x3d28adf0	0.041181505
20	0xbdc7f73a	-0.097639516
21	0xbddb9380	-0.10721493
22	0xbce4dc3b	-0.027937045
23	0x3838a518	4.4022774e-05
24	0xbe0cf66e	-0.1376588
25	0xbdc09506	-0.09403424
26	0xbdd52ed1	-0.1040932
27	0x3cc6bcf4	0.024260022
28	0x3cb18cee	0.021673646
29	0xbe87c8c8	-0.2652037
30	0x3df7ca3d	0.12099121
31	0xbe6a927d	-0.22907443
32	0x3d4d0481	0.050053123
33	0xbe1b3732	-0.15157774
34	0x3dc9d8a0	0.09855771
35	0x3eb5f212	0.35536247
36	0x3e02fd33	0.127919
37	0x3d9d9bc5	0.07695726
38	0xbeabe634	-0.3357407
39	0x3ebb1f7a	0.36547452
40	0x3e1ff5b0	0.15621066
41	0x3ebe7905	0.37201706
42	0x3ed0bcd5	0.40769067
43	0x3ea7f37d	0.32802954
44	0x3d61bc7e	0.0551114
45	0x3e7b3f24	0.24535805
46	0xbe00f41c	-0.1259312
47	0x3de08934	0.109636694
48	0x3e76eae2	0.24113038
49	0xbb24b9d8	-0.0025135186
50	0x3e27de08	0.16393292
51	0xbf3bbf2d	-0.73338586
52	0x3d1e2b1a	0.038615324
53	0xbd96bf41	-0.073606975
54	0xbe641481	-0.22273447
55	0xbc3c90e0	-0.01150915
56	0xbe1b3f36	-0.15160832
57	0x3e0f289b	0.13980334
58	0x3cfb90bd	0.030708665
59	0xbe09b589	-0.13448156
60	0x3dffc5ce	0.124889
61	0x3c09e94e	0.008417441
62	0xbcf711ab	-0.030159792
63	0xbdb8eb83	-0.09029295
64	0xbc068497	-0.008210323
65	0x3c58241b	0.013192202
66	0xbd20fbd6	-0.03930267
67	0x3e0a8f64	0.13531262
68	0xbe296851	-0.165437
69	0xba2f29f7	-0.00066819735
70	0xbb833aeb	-0.0040048263
71	0xbdd149bd	-0.102191426
72	0xbd9d1115	-0.07669274
73	0xbe9a5558	-0.30143237
74	0x3d971bb5	0.073783316
75	0xbc5ea609	-0.013589391
76	0xbec7a202	-0.3899079
77	0x3e8053f7	0.2506406
78	0x3e50c784	0.20388609
79	0x3d273883	0.04082538
80	0xbe09fdb3	-0.13475685
81	0x3dd5855e	0.104258284
82	0xbb4da119	-0.003137654
83	0xbf0e827b	-0.5566785
84	0x3ebb36ba	0.3656519
85	0xbd5cbcb3	-0.053890895
86	0xbd98c8c6	-0.074601695
87	0x3e7be8b1	0.24600483
88	0xbdce3fd7	-0.1007077
89	0x3ec066bd	0.37578383
90	0x3e2404fb	0.16017525
91	0xbe4ba744	-0.19888026
92	0x3ceabc72	0.02865431
93	0x3d9532b7	0.07285064
94	0x3d9c63da	0.07636233
95	0xbe150db9	-0.14556016
96	0x3e4f7a1c	0.20261425
97	0x3ea085d4	0.31352103
98	0x3e07c71f	0.13259552
99	0x3f1ca011	0.6118174
100	0xbf87faa8	-1.0623369
101	0xbe804291	-0.25050786
102	0xbeacbd45	-0.3373815
103	0x3f479131	0.7795592
104	0xbd1572bf	-0.036486384
105	0xbdd031f2	-0.10165776
106	0xbdb77639	-0.08958096
107	0x3dec5c37	0.11541026
108	0xbe32b6a3	-0.17452483
109	0x3dcfef85	0.101531066
110	0xbe3b5794	-0.18295127
111	0xbd156e3f	-0.036482092
112	0x3d94c759	0.07264585
113	0x3d7f351b	0.062306505
114	0xbcd08ded	-0.0254583
115	0xbc1f10ae	-0.009708567
116	0x3e23e48a	0.1600515
117	0xbd844360	-0.06458163
118	0x3cdf80a2	0.027283017
119	0xbc90a524	-0.01765687
120	0x3bea6868	0.0071535595
121	0xbd616311	-0.055026118
122	0xbe2f8393	-0.17140035
123	0xbd9a42ce	-0.07532273
124	0xbe0b2045	-0.13586529
125	0x3d421942	0.04738737
126	0x3db2116b	0.086947285
127	0xbe0e9754	-0.13924915
128	0x3e257ccc	0.16160887
129	0xbe27b022	-0.16375783
130	0xbcf13824	-0.029445715
131	0xbdb7b30b	-0.089696966
132	0x3dbe8768	0.093031704
133	0xbe52b8de	-0.20578334
134	0x3dab848d	0.083748914
135	0x3e529603	0.20565037
136	0x3d8840d5	0.06652991
137	0xbedec292	-0.4350782
138	0x3d7d9895	0.06191309
139	0x3e298694	0.16555244
140	0x3d81f485	0.063454665
141	0xbea7be72	-0.32762486
142	0x3f107b78	0.564384
143	0xbf168131	-0.5879088
144	0x3e36baa2	0.17844632
145	0x3e86e7bf	0.26348683
146	0x3e8389f4	0.25691187
147	0xbe805172	-0.25062138
148	0x3f03372a	0.5125605
149	0xbec67047	-0.38757536
150	0x3ed3273a	0.41240865
151	0xbda44b2d	-0.08022151
152	0xbd55bd1f	-0.052182313
153	0x3e424c3a	0.1897439
154	0xbf27c7c8	-0.65539217
155	0x3e2476d5	0.16060956
156	0x3e035d76	0.12828621
157	0xbd33a794	-0.043860987
158	0x3d81ca0f	0.06337368
159	0x3e20ff20	0.15722322
160	0xbd5d7a31	-0.05407161
161	0x3a8cb544	0.0010735174
162	0x3e0a0de7	0.13481866
163	0x3da03bdc	0.07823917
164	0xbe136ffc	-0.14398187
165	0x3d5873e1	0.052844886
166	0x3e06bcdd	0.13157983
167	0x3d998ba9	0.07497341
168	0xbc951921	-0.018200459
169	0xbd12d6b3	-0.035849284
170	0xbd869773	-0.065718554
171	0x3bb8dc8e	0.0056415265
172	0x3e2d3108	0.16913235
173	0x3d1f2ca8	0.038860947
174	0xbdd8853c	-0.105722874
175	0x3d2d98dd	0.04238211
176	0x3e057366	0.13032302
177	0x3d33d49b	0.04390393
178	0x3d9e0479	0.07715697
179	0xbe535601	-0.20638277
180	0xbe31600b	-0.17321794
181	0xbe8f9fc5	-0.28051582
182	0x3d5d4ed2	0.054030247
183	0xbe0c2ac4	-0.13688189
184	0x3d53c327	0.051699784
185	0x3db38ae8	0.08766729
186	0xbd0d283c	-0.0344622
187	0x3dfbaada	0.12288447
188	0xbe979e01	-0.29612735
189	0xbd86fe50	-0.06591475
190	0x3d6c55e0	0.057699084
191	0x3c0f472f	0.008744999
192	0x3c9fddc7	0.019514931
193	0x3ea3a7c5	0.31963935
194	0xbed3ef67	-0.41393587
195	0xbee17f25	-0.44042316
196	0xbeb682d3	-0.35646686
197	0xbe350b91	-0.17680193
198	0xbe4733ba	-0.19453326
199	0xbe161fbc	-0.14660543
200	0x3e1e761f	0.15474747
201	0xbed23c32	-0.4106155
202	0x3f88c765	1.068585
203	0x3d15c95a	0.036568977
204	0xbe447701	-0.19186021
205	0xbf299bc3	-0.662533
206	0xbd2c1ebd	-0.0420215
207	0x3fbb9cbf	1.465721
208	0xbda0daf1	-0.0785426
209	0xbce98f87	-0.028510822
210	0xbe50adb2	-0.2037876
211	0xbe965705	-0.29363266
212	0xbe4d4aab	-0.20048015
213	0x3e26d4b8	0.16292083
214	0x3d0fe928	0.035134465
215	0xbe0f163d	-0.13973327
216	0x3db3c533	0.08777847
217	0xbe884a68	-0.26619267
218	0xbd2b8ccb	-0.041882318
219	0xbd9779f7	-0.0739631
220	0x3e05961c	0.13045543
221	0xbc465a93	-0.0121065555
222	0xbe800c4f	-0.2500939
223	0xbe4f44bf	-0.20241068
224	0x3e03d02f	0.12872384
225	0x3d3a4d1f	0.045483705
226	0xbeb212ea	-0.34780055
227	0xbd308f4b	-0.043105405
228	0x3d86da1d	0.065845706
229	0xbc4e8b62	-0.012606474
230	0x3da60481	0.08106328
231	0xbebcf7ff	-0.36907956
232	0xbf29e148	-0.66359377
233	0xbdc6b6a8	-0.09702808
234	0xbde18a34	-0.11012688
235	0x3e8923c9	0.26785114
236	0xbdb43473	-0.087990664
237	0x3e5c7a01	0.21530916
238	0x3dd9dedc	0.1063821
239	0xbe5566de	-0.20840022
240	0x3e2db46f	0.16963361
241	0x3bdc7b2c	0.0067285504
242	0x3e481347	0.19538604
243	0xbde43574	-0.11143008
244	0xbde007b7	-0.109389715
245	0x3f09ed07	0.538773
246	0x3e9c2e72	0.30504185
247	0xbe17a92d	-0.14810629
248	0x3dd3a7d6	0.103347465
249	0x3e44c32c	0.19215077
250	0x3e8e167a	0.27751523
251	0x3f7f26b9	0.9966846
252	0x3e75610d	0.23962803
253	0xbe50efff	-0.20404051
254	0xbfae944a	-1.3639004
255	0x3ede677d	0.4343833

fc0.0.bias f4 [40]
0	0xbcfc8832	-0.030826662
1	0xbe37dd3e	-0.17955491
2	0xbd4d980d	-0.050193835
3	0x3dc177a2	0.09446646
4	0xbdfe2f7d	-0.124114014
5	0x3e1c7428	0.15278685
6	0xbddf0ef6	-0.108915254
7	0x3dd1fcc5	0.1025329
8	0x3dd266c9	0.10273511
9	0x3dbd6850	0.09248412
10	0x3d35cb9a	0.044383623
11	0x3e2c30d5	0.16815503
12	0xbcec6a3f	-0.028859256
13	0x3d509df1	0.050931875
14	0x3db0eadc	0.08638546
15	0x3de238cf	0.11045992
16	0x3cc62601	0.024188044
17	0x3e12c5c4	0.14333254
18	0x3e9048a2	0.28180414
19	0x3c951487	0.018198265
20	0xbd21e214	-0.039522246
21	0x3db54e5a	0.08852835
22	0x3e06ffa2	0.13183454
23	0xbd76fdea	-0.060300745
24	0x3d55a0ff	0.05215549
25	0xbdad3bd1	-0.08458675
26	0xbc047433	-0.008084345
27	0x3e686ecf	0.2269852
28	0x3cf4de07	0.029891027
29	0xbc5deb8f	-0.013544931
30	0x3d923930	0.07139814
31	0xbcfe99b9	-0.03107916
32	0xbe214e5c	-0.15752548
33	0x3e69c0e5	0.2282749
34	0x3d756443	0.05991007
35	0xbc4699fb	-0.012121673
36	0x3d6a911a	0.057267286
37	0x3dfd3a98	0.123646915
38	0xbd993f19	-0.07482738
39	0x3cc87b14	0.02447275

fc0.1.weight f4 [20, 40]
0	0x3e4d8cca	0.20073238
1	0xbe4ca902	-0.19986346
2	0xbea03f4d	-0.31298295
3	0xbe28c81c	-0.16482586
4	0xbd66ab00	-0.056315422
5	0x3d58e611	0.052953783
6	0xbece2337	-0.40261242
7	0x3d9a2cf1	0.07528103
8	0xbebcc1c3	-0.36866578
9	0x3f7291c2	0.9475366
10	0x3dab3406	0.08359532
11	0xbe7ae293	-0.24500494
12	0x3ea77090	0.32703066
13	0x3e79a256	0.24378332
14	0xbd236944	-0.03989531
15	0xbf10db12	-0.56584275
16	0xbe96c684	-0.2944833
17	0x3d441e52	0.04788048
18	0x3db06ca0	0.086144686
19	0x3f284b7c	0.6574018
20	0x3ec6821f	0.3877115
21	0x3ecc8228	0.3994305
22	0xbde7f7ae	-0.11326538
23	0xbde9648e	-0.113961324
24	0x3ead726b	0.33876356
25	0xbdbdbaac	-0.092641205
26	0x3e88381d	0.2660531
27	0x3db4ebf5	0.08834068
28	0xbd7c1982	-0.061547764
29	0x3db44a04	0.0880318
30	0xbe0094cf	-0.12556766
31	0x3e8741ca	0.2641738
32	0xbeb23eea	-0.34813625
33	0xbdf338da	-0.11876078
34	0x3e98ace8	0.29819417
35	0x3e8b11da	0.27162057
36	0x3df4b1f6	0.11948006
37	0x3e0c99ff	0.1373062
38	0xbccfb234	-0.025353529
39	0x3d910759	0.070814796
40	0xbe9678eb	-0.29389128
41	0xbdb04ace	-0.08608018
42	0x3ef5200d	0.47876015
43	0xbe8a3d1a	-0.26999742
44	0x3c295fb1	0.010337756
45	0xbc824bc9	-0.015905278
46	0x3da2cc24	0.07949093
47	0x3d798250	0.06091529
48	0xbe566669	-0.20937504
49	0x3e6f663a	0.2337884
50	0xbe87b450	-0.26504755
51	0xbe4a6732	-0.19765928
52	0x3d0e19ef	0.0346927
53	0xbf2fccbc	-0.68671775
54	0xbe957046	-0.2918722
55	0xbea5a8a9	-0.3235524
56	0xbeef5500	-0.46744537
57	0xbe874f4c	-0.26427686
58	0x3e91f0b2	0.28503948
59	0x3e30c666	0.17263183
60	0xbe8b4985	-0.27204528
61	0x3dcde147	0.10052734
62	0x3e89b9d2	0.26899582
63	0x3e69e66d	0.22841807
64	0x3ec0e9d4	0.37678397
65	0xbe4f096d	-0.2021844
66	0xbec4b123	-0.38416395
67	0xbdd5d464	-0.10440901
68	0xbe0b29b9	-0.13590135
69	0x3e9a3bc0	0.3012371
70	0x3d0c183d	0.034202803
71	0xbbcd9df8	-0.006274935
72	0xbdd686df	-0.10474943
73	0xbe07a483	-0.1324635
74	0x3e1cc808	0.15310681
75	0x3ecb315d	0.396861
76	0x3dab4821	0.08363367
77	0xbe0ffec4	-0.14062029
78	0xbe3c66dc	-0.18398613
79	0x3d68ee9c	0.05686818
80	0x3ead69fe	0.33869928
81	0x3cebfe67	0.028807832
82	0xbe8bde52	-0.27318054
83	0x3d867701	0.06565667
84	0x3ed8652d	0.4226469
85	0x3e6d32b3	0.23163871
86	0x3eea2a26	0.45735282
87	0x3e877190	0.2645383
88	0xbeef4c43	-0.4673787
89	0x3d107a7d	0.035273064
90	0xbc1228c5	-0.008920853
91	0x3e6d7b13	0.2319148
92	0x3e989c3b	0.29806694
93	0xbe646f5d	-0.22308107
94	0x3d811f25	0.063047685
95	0x3eb2df0b	0.34935793
96	0xbd164540	-0.036687136
97	0xbd1c0a62	-0.03809584
98	0x3ea99422	0.3312083
99	0x3e522933	0.20523529
100	0xbd3a3f24	-0.04547037
101	0x3f1401e2	0.5781537
102	0xbe31c2d6	-0.1735948
103	0xbd564f47	-0.0523217
104	0x3e890f53	0.26769504
105	0xbeabafb0	-0.33532476
106	0x3ec69bb0	0.38790655
107	0xbd23c6e3	-0.039984595
108	0xbe3f928d	-0.18708248
109	0x3dfe0aa8	0.12404376
110	0xbd94fa28	-0.07274276
111	0x3db9c145	0.09070066
112	0x3ea5db42	0.32393843
113	0x3de617b1	0.112349875
114	0xbe29e0a5	-0.16589601
115	0x3f0ee86b	0.5582339
116	0xbe5fbd6b	-0.21849601
117	0x3e6d8af9	0.23197545
118	0xbe9aabd6	-0.30209225
119	0x3e7af9a5	0.24509294
120	0x3df52f8e	0.11971961
121	0x3e1ca658	0.1529783
122	0x3e971b16	0.29512852
123	0x3e12ffcb	0.1435539
124	0xbe249089	-0.16070761
125	0xbd254039	-0.04034445
126	0xbf212add	-0.6295603
127	0x3dc77e28	0.09740859
128	0x3ebe7c26	0.37204093
129	0xbd88b921	-0.066759355
130	0xbe00280d	-0.12515278
131	0xbd3e1034	-0.04640217
132	0x3e6e91fe	0.23297879
133	0xbd8e3707	-0.069440894
134	0x3e31f7a6	0.17379627
135	0xbdeec196	-0.11658017
136	0x3e214137	0.15747534
137	0x3dfa0fe2	0.12210061
138	0x3e0d393c	0.13791364
139	0xbeb67975	-0.3563954
140	0x3e7b7a77	0.24558435
141	0xbdb75d09	-0.08953292
142	0x3e070f9a	0.13189545
143	0x3d84929f	0.06473278
144	0x3dc12533	0.09430923
145	0xbd110886	-0.03540852
146	0xbec10adb	-0.37703595
147	0xbdd19e5d	-0.102352835
148	0x3e92974f	0.28631064
149	0xbe10aceb	-0.14128463
150	0x3eb28016	0.34863347
151	0xbecab0f9	-0.39588144
152	0x3df4f2da	0.11960383
153	0xbda3bf37	-0.07995456
154	0xbf056a48	-0.521153
155	0xbeef583d	-0.46747008
156	0xbe9a1dc0	-0.30100822
157	0xbe8796ef	-0.2648234
158	0x3c594e39	0.013263279
159	0x3ec88153	0.39161167
160	0x3d7ea22e	0.062166385
161	0x3e969824	0.2941295
162	0xbde424f5	-0.111398615
163	0x3e800301	0.25002292
164	0x3e7c2ce1	0.24626495
165	0xbe57cf8a	-0.21075264
166	0xbca4613d	-0.020065898
167	0x3d7d0887	0.06177571
168	0x3e11b7a1	0.14230205
169	0x3e3bf6c1	0.18355848
170	0xbc9ba162	-0.018997852
171	0x3e11f51a	0.14253655
172	0x3dd6d67f	0.10490131
173	0xbe4af0bd	-0.19818397
174	0xbe312baa	-0.17301813
175	0xbe047ce3	-0.12938266
176	0xbebb8d5b	-0.36631283
177	0xbe996ed8	-0.2996738
178	0x3e1c00c1	0.15234663
179	0x3e576a6e	0.21036693
180	0x3ed13557	0.40861008
181	0x3e04c6af	0.12966417
182	0xbdb45111	-0.08804525
183	0x3d699690	0.057028353
184	0xbf1da3dc	-0.61578155
185	0x3ead8f4c	0.3389839
186	0xbe4d928b	-0.20075433
187	0x3eceed4e	0.40415424
188	0xbef593bc	-0.47964275
189	0xbea155ac	-0.31510675
190	0x3e2b444f	0.16725276
191	0x3e336fa2	0.17523053
192	0x3e0e5a8f	0.13901733
193	0xbd68ad08	-0.05680564
194	0x3e012d95	0.12615044
195	0x3eb43d07	0.3520281
196	0x3ef969ff	0.4871368
197	0xbe92a387	-0.28640386
198	0x3da319ec	0.079639286
199	0x3eb2dabc	0.34932506
200	0xbe86df88	-0.26342416
201	0x3d85d75a	0.06535216
202	0x3c7421b4	0.014900614
203	0x3d2017ff	0.039085384
204	0x3e39f002	0.18157962
205	0xbdfda203	-0.12384417
206	0x3f1e9293	0.61942405
207	0xbe3cfec0	-0.18456554
208	0x3dfc4c39	0.12319226
209	0x3e41440f	0.18873619
210	0x3e188738	0.14895332
211	0xbe0795ee	-0.13240787
212	0xbe906da1	-0.2820864
213	0x3e5a83ca	0.21339336
214	0xbdb29883	-0.087204956
215	0x3ea3ec96	0.32016438
216	0x3e42cc6a	0.1902329
217	0xbdcaefa6	-0.099089906
218	0xbd8b0c32	-0.067894354
219	0xbddb56b0	-0.10709894
220	0xbd5c7e69	-0.05383149
221	0x3cba9c7f	0.022779701
222	0xbdce339a	-0.10068436
223	0x3e757899	0.23971786
224	0x3e69b7b6	0.22823986
225	0x3d8cdc7b	0.06877991
226	0x3e3f998e	0.1871092
227	0xbe230bd9	-0.15922488
228	0xbeb45169	-0.3521836
229	0xbe4fabd8	-0.20280397
230	0x3dcc1a69	0.09965975
231	0xbe2ad933	-0.16684417
232	0x3d52daba	0.051478125
233	0xbe0c5de7	-0.13707696
234	0x3d5bfebe	0.053709738
235	0xbedddfbc	-0.43334758
236	0xbe802d47	-0.25034544
237	0xbec1ba78	-0.37837577
238	0xbe035715	-0.12826188
239	0x3de62d71	0.11239136
240	0xbe3f1a63	-0.1866241
241	0x3cba6f1d	0.022758061
242	0xbe268f9b	-0.16265719
243	0x3ea5d5c1	0.32389644
244	0x3ecdfff8	0.4023435
245	0xbdfa32d8	-0.12216729
246	0xbde43312	-0.111425534
247	0x3e017500	0.12642288
248	0xbd438fca	-0.04774455
249	0xbdfb7d20	-0.12279725
250	0x3e048b3b	0.12943737
251	0xbe10dbbe	-0.14146325
252	0xbd833813	-0.0640718
253	0x3e350f2a	0.17681566
254	0xbacb1ebe	-0.0015496833
255	0xbc6b81b5	-0.014374186

fc0.1.bias f4 [20]
0	0x3e024f43	0.12725548
1	0xbd1e0e88	-0.038588077
2	0xbe9cc19b	-0.3061646
3	0x3e64cae4	0.22343022
4	0x3da4c6be	0.080457196
5	0x3e237e9b	0.15966265
6	0x3ee0587b	0.43817505
7	0x3dc17a24	0.094471246
8	0x3e580ffd	0.21099849
9	0xbeb19a07	-0.34687826
10	0x3f06398b	0.52431554
11	0xbe53c819	-0.206818
12	0xbe985b3f	-0.29757115
13	0xbe82a654	-0.25517523
14	0x3deeb4c5	0.11655573
15	0xbd2b29e5	-0.041788
16	0x3ce2b88c	0.02767589
17	0xbd9e12a6	-0.07718401
18	0xbc66f09b	-0.014095451
19	0xbe44e3a1	-0.19227459

fc0.2.weight f4 [20, 20]
0	0xbe1ec1d5	-0.15503629
1	0x3de2c4e9	0.11072714
2	0xbeb7a063	-0.35864553
3	0x3d98aa18	0.07454318
4	0xbf1fd096	-0.6242765
5	0x3c178954	0.00924905
6	0x3e102bb7	0.14079176
7	0x3d13a2a0	0.036043763
8	0x3dac472e	0.08412014
9	0x3e30a4ad	0.17250319
10	0xbe396303	-0.18104176
11	0xbe99f268	-0.30067754
12	0x3d2c5b2a	0.04207913
13	0x3ef2df07	0.4743578
14	0xbcccb3ec	-0.024988137
15	0xbe73f32f	-0.23823236
16	0x3d1def84	0.038558498
17	0x3ef84fc4	0.48498356
18	0x3e4f2930	0.20230556
19	0xbe379ad8	-0.17930162
20	0x3dcac1f2	0.099002734
21	0x3e0e085a	0.13870373
22	0xbe50f768	-0.20406878
23	0x3c453564	0.012036655
24	0x3e33e2a3	0.17566924
25	0xbe2550fe	-0.16144177
26	0x3dd45ae7	0.10368901
27	0xbe723350	-0.23652387
28	0xbe3a3c43	-0.1818705
29	0xbe09d058	-0.13458383
30	0x3d4d2332	0.050082393
31	0x3e1463d7	0.14491211
32	0xbce31aff	-0.027722834
33	0xbe469e61	-0.19396354
34	0x3e01d5bb	0.12679188
35	0xbda61c2c	-0.08110842
36	0x3d1baa4a	0.038004197
37	0x3e93e63c	0.28886592
38	0x3df658a0	0.120286226
39	0x3ea5e0f5	0.3239819
40	0xbd4d6dc5	-0.050153513
41	0x3f0dc549	0.5537916
42	0x3dee779d	0.11643908
43	0xbe1ae971	-0.15128113
44	0x3d9e7bd1	0.0773846
45	0x3df36e25	0.11886243
46	0xbf5289c7	-0.8224148
47	0x3e8fa66c	0.28056657
48	0xbf22e879	-0.63635975
49	0x3e7f4127	0.24927197
50	0xbf74e554	-0.95662427
51	0xbf0c9c10	-0.5492563
52	0x3ea9cc36	0.33163613
53	0xbf27359e	-0.6531619
54	0x3e7bbe4d	0.24584313
55	0x3e875000	0.26428223
56	0xbda06151	-0.07831062
57	0x3e85d9f3	0.26142845
58	0x3d7f0ceb	0.06226818
59	0xbf97486d	-1.1818978
60	0xbb4717f4	-0.0030379267
61	0xbbc6b357	-0.0060638594
62	0xbe0da5fb	-0.13832848
63	0x3e0bdf0c	0.13659304
64	0xbd241993	-0.040063452
65	0x3db47d42	0.088129535
66	0xbd83b479	-0.06430907
67	0x3e51212e	0.20422813
68	0x3e4285f0	0.18996406
69	0xbc1fd621	-0.009755642
70	0xbe944ac2	-0.28963286
71	0xbe07787a	-0.13229552
72	0xbe0ec813	-0.1394351
73	0xbd467781	-0.04845381
74	0x3b5272dd	0.003211192
75	0x3e57ad08	0.210621
76	0x3c0372d5	0.008022984
77	0xbc01125c	-0.007877912
78	0xbda655a9	-0.08121807
79	0xbde9aafb	-0.11409565
80	0x3e060bbf	0.13090418
81	0xbec4fc60	-0.38473797
82	0x3f047aa6	0.51749647
83	0xbf04e021	-0.51904494
84	0xbd88b186	-0.06674485
85	0xbe4a9262	-0.19782403
86	0x3f488257	0.7832388
87	0x3d77406a	0.060364164
88	0x3dbc4819	0.09193439
89	0x3f9ff18d	1.249559
90	0xbdf11fd7	-0.11773651
91	0xbe831400	-0.25601196
92	0x3ec7fa40	0.39058113
93	0xbf179af8	-0.5922084
94	0x3e07db68	0.1326729
95	0x3d5e8e2f	0.054334816
96	0xbce18c5c	-0.027532749
97	0xbd797458	-0.06090197
98	0xbdb1a59e	-0.08674167
99	0xbf25cf48	-0.6476941
100	0x3d613ab1	0.054987613
101	0x3f183479	0.59455067
102	0xbcef26de	-0.029193338
103	0xbe718163	-0.23584513
104	0xbe710e99	-0.23540725
105	0xbd659258	-0.056047767
106	0xbd464516	-0.04840573
107	0xbde00914	-0.109392315
108	0xbe4772b8	-0.19477355
109	0xbbf998d4	-0.0076170955
110	0xbe8fb226	-0.28065604
111	0x3d930341	0.07178355
112	0xbe694a30	-0.22782207
113	0xbe33434f	-0.17506145
114	0x3e335f6f	0.17516874
115	0x3e2b7938	0.1674546
116	0xbe87a124	-0.26490128
117	0xbe852224	-0.2600261
118	0xbd69f55f	-0.05711877
119	0x3e830a8c	0.25593984
120	0x3e9dbee5	0.30809703
121	0xbaddbbf2	-0.0016916974
122	0xbeddfe89	-0.43358257
123	0xbe377ef7	-0.17919527
124	0x3e0bb275	0.13642295
125	0x3ef3e5eb	0.4763635
126	0x3f0e94c4	0.5569575
127	0x3eb1f4eb	0.3475717
128	0x3ef5e2be	0.48024553
129	0xbf001354	-0.5002949
130	0x3f637867	0.88855594
131	0xbe59ddcb	-0.21276014
132	0xbed8899c	-0.42292488
133	0xbecbd32b	-0.39809546
134	0x3f15d01a	0.5852066
135	0x3ec0d769	0.37664345
136	0xbebfe85f	-0.37481973
137	0x3e87295a	0.26398736
138	0xbe9ce86b	-0.3064607
139	0xbefcea3a	-0.4939745
140	0xbe8d99e8	-0.27656484
141	0xbd0e6475	-0.034763772
142	0x3e631b8f	0.22178482
143	0x3dd5eb4b	0.10445269
144	0xbe54eaf9	-0.2079276
145	0xbe0b84e6	-0.13624915
146	0x3dca7285	0.09885124
147	0x3c95be87	0.018279327
148	0xbe248c56	-0.16069159
149	0x3e4474a9	0.19185127
150	0xbd842e94	-0.064541966
151	0xbd66dfcf	-0.056365784
152	0xbe89adb5	-0.2689034
153	0x3d121783	0.035666954
154	0x3e0989b8	0.13431442
155	0xbd1fa8c1	-0.038979296
156	0xbe98959c	-0.29801643
157	0xbdafef5b	-0.08590575
158	0xbe3580ef	-0.17724966
159	0x3d3a3ef9	0.04547021
160	0xbe864e10	-0.26231432
161	0xbe90ed35	-0.28305975
162	0xbeb6418d	-0.35596886
163	0xbd2057fd	-0.039146412
164	0xbf5ecf0d	-0.87034684
165	0x3db4c83c	0.08827254
166	0xbd5cc852	-0.053901978
167	0x3e2a0d7e	0.1660671
168	0xbe48b5da	-0.19600621
169	0x3e8aaa88	0.2708323
170	0x3ea30efa	0.31847364
171	0x3d987939	0.074449964
172	0x3f35f02f	0.71069616
173	0x3e0f3370	0.13984466
174	0x3df0e675	0.11762706
175	0x3c5b4273	0.013382542
176	0x3e86f0da	0.2635563
177	0x39c7ab28	0.0003808376
178	0xbdcd8d2f	-0.10036694
179	0x3f14a3e9	0.5806261
180	0xbe88c893	-0.26715526
181	0xbef4668b	-0.47734484
182	0xbd90dc97	-0.07073324
183	0x3da28bdf	0.079368345
184	0xbf05c107	-0.5224766
185	0xbd822ed1	-0.06356586
186	0xbe2ef7c6	-0.17086706
187	0xbd863312	-0.0655271
188	0x3def0334	0.11670533
189	0xbe918cf5	-0.28427854
190	0x3eb9637f	0.36208722
191	0x3f32beca	0.6982237
192	0x3cda490e	0.026646163
193	0x3f123390	0.5710993
194	0x3d739723	0.059470307
195	0x3e0c2ad8	0.13688219
196	0xbc44ec34	-0.012019206
197	0x3ef71691	0.48259404
198	0x3e54dd94	0.2078765
199	0x3e838941	0.25690654
200	0xbd83a2a1	-0.064275034
201	0xbc8f8a13	-0.017521894
202	0xbe8fb3be	-0.2806682
203	0x3e5f28a5	0.21792848
204	0xbea8aec3	-0.32945833
205	0x3d92e42f	0.07172429
206	0x3e6455ab	0.22298305
207	0x3e0af25d	0.13569017
208	0xbe4adc3c	-0.19810575
209	0xbdc3f530	-0.0956825
210	0xbe3a8a4f	-0.18216823
211	0xbd6556f9	-0.055991147
212	0x3d9fc2aa	0.07800801
213	0xbe7e87e4	-0.24856526
214	0x3da64aa6	0.08119707
215	0x3e839491	0.25699285
216	0xbde5d7a2	-0.11222769
217	0xbe411661	-0.18856193
218	0xbc772c81	-0.015086294
219	0x3dc3457a	0.09534736
220	0xbe87f9ff	-0.2655792
221	0xbeb9521c	-0.36195457
222	0xbeb0abb9	-0.34506014
223	0xbe10f119	-0.14154471
224	0x3e27f048	0.16400254
225	0xbe7ff1a2	-0.2499452
226	0xbea936bd	-0.33049574
227	0xbc257cb7	-0.010100535
228	0x3b831d5b	0.004001302
229	0xbeb93d2f	-0.36179492
230	0xbe123ee4	-0.14281803
231	0x3dfa09a6	0.122088715
232	0x3e909e08	0.28245568
233	0xbefc0a0f	-0.49226424
234	0x3de4a956	0.11165111
235	0x3c374d53	0.011187869
236	0x3e687d88	0.22704136
237	0xbe5372dc	-0.20649284
238	0x3e8cdefb	0.2751387
239	0x3e903fec	0.2817377
240	0x3e37db38	0.17954719
241	0x3f1e00a8	0.6171975
242	0xbe352bab	-0.1769244
243	0xba0a6323	-0.0005279055
244	0x3cd0f86e	0.025509086
245	0x3ea7c44d	0.32766953
246	0x3c745f76	0.014915338
247	0xbe8b9b2b	-0.2726682
248	0xbdeccb25	-0.11562184
249	0xbda438ac	-0.08018622
250	0xbdc350bc	-0.09536883
251	0xbe372f85	-0.17889221
252	0x3eb8a66b	0.36064467
253	0xbbf9e575	-0.0076262304
254	0xbdcf2d2c	-0.10116038
255	0x3e05aa54	0.13053256

fc0.2.bias f4 [20]
0	0xbc541d6e	-0.01294647
1	0xbe9eacdf	-0.30991265
2	0xbd4ab073	-0.04948468
3	0x3e960f2a	0.29308444
4	0x3e8bdfff	0.27319333
5	0x3e705da5	0.23473223
6	0xbca4f97f	-0.0201385
7	0x3e06dd50	0.13170362
8	0x3e5b6c50	0.21428037
9	0x3db0e558	0.08637494
10	0x3e61681d	0.22012372
11	0xbea098ae	-0.31366485
12	0xbc3a1abc	-0.011358913
13	0x3eb65ada	0.3561619
14	0xbd8b7301	-0.06809045
15	0x3de2eecf	0.110807054
16	0xbe8173b5	-0.2528359
17	0xbdf993be	-0.12186383
18	0xbe9f9e6c	-0.31175554
19	0xbe57337c	-0.21015733

fc1.0.weight f4 [20, 20]
0	0xbe43a33b	-0.19105236
1	0xbe6f7180	-0.2338314
2	0xbd9328d7	-0.07185524
3	0x3d249ec0	0.04019046
4	0xbe05bf24	-0.13061196
5	0xbdfb2967	-0.12263756
6	0x3e91d873	0.2848545
7	0x3df9c1c6	0.121951625
8	0xbdc5646b	-0.09638294
9	0x3d3a29ad	0.0454499
10	0x3d92ae70	0.071621776
11	0xbdf62736	-0.12019198
12	0xbe0af45d	-0.1356978
13	0xbc051946	-0.008123701
14	0xbca47683	-0.020076042
15	0xbd38e8ef	-0.045144018
16	0x3d24c28b	0.040224593
17	0xbdccc243	-0.0999799
18	0xbe920bfc	-0.28524768
19	0xbce5ab7a	-0.028035868
20	0xbd0f074f	-0.03491908
21	0x3dbfa935	0.093584456
22	0x3d29157a	0.041280247
23	0xbd58cecc	-0.052931592
24	0xbe999549	-0.29996708
25	0xbdafabd6	-0.08577697
26	0xbe98ccb9	-0.2984369
27	0x3d911687	0.07084375
28	0x3ea55bf0	0.32296705
29	0x3ea3f7cf	0.32025
30	0x3d857553	0.065165184
31	0xbdacf07a	-0.08444305
32	0xbdea537f	-0.11441707
33	0xbb8101a2	-0.003936962
34	0xbc8473d4	-0.016168512
35	0x3dd107c1	0.10206557
36	0xbe16efe4	-0.14739949
37	0xbe0f1708	-0.1397363
38	0xbd2a72d2	-0.041613407
39	0x3d72d0df	0.059281226
40	0x3d18e871	0.03733105
41	0x3d9d3976	0.076769754
42	0xbee41573	-0.44547614
43	0xbe7c139b	-0.24616854
44	0xbf2cf28f	-0.67557615
45	0xbec5ca73	-0.3863102
46	0xbe2ccf29	-0.168759
47	0xbe5149f6	-0.2043837
48	0xbe87bd38	-0.2651155
49	0x3f04ae06	0.5182804
50	0xbe8939c8	-0.26801896
51	0x3ee8083f	0.4531879
52	0x3da4c162	0.08044697
53	0xbdc2cdf6	-0.0951194
54	0x3e5c6a6b	0.2152497
55	0xbef7bd48	-0.48386598
56	0x3dff8481	0.12476445
57	0xbef277f3	-0.4735714
58	0x3ea84081	0.32861713
59	0xbe942a5e	-0.28938574
60	0x3d14fc0b	0.03637318
61	0x3e0c8b81	0.13725092
62	0xbebcfbbe	-0.36910814
63	0x3e37c591	0.1794646
64	0x3e902abf	0.28157613
65	0xbde138b6	-0.10997145
66	0xbe1f4c70	-0.15556502
67	0xbf02f5be	-0.5115622
68	0xbb1359de	-0.0022483985
69	0x3dbc5672	0.09196176
70	0x3d0b5428	0.034015805
71	0xbd1f6afe	-0.038920395
72	0xbf025b02	-0.50920117
73	0x3ee573bc	0.4481486
74	0xbe871578	-0.26383567
75	0x3f001a4f	0.50040144
76	0x3ef5cf3c	0.4800967
77	0x3e3c147e	0.18367192
78	0xbd2827de	-0.041053645
79	0x3e244a11	0.16043879
80	0xbe1e04ba	-0.1543149
81	0x3f1a12f6	0.6018518
82	0xbcede146	-0.029038083
83	0x3ec71c1d	0.38888636
84	0xbe10419f	-0.14087532
85	0xbdf65a35	-0.120289244
86	0xbe59a30d	-0.21253605
87	0x3c779503	0.015111211
88	0xbe970a60	-0.29500103
89	0xbea5d5f1	-0.32389787
90	0xbcf4dd08	-0.029890552
91	0xbea759b0	-0.32685614
92	0xbe86cc0e	-0.26327556
93	0xbe8e3748	-0.2777655
94	0x3e9410ad	0.28918973
95	0x3e88519b	0.2662476
96	0x3dfd8420	0.123787165
97	0xbe1bb9cc	-0.15207595
98	0xbe11cbde	-0.14237925
99	0xbdf6dc0f	-0.120536916
100	0x3e69f3d8	0.22846925
101	0xbe123bde	-0.1428065
102	0xbe4d6fcc	-0.20062178
103	0xbe8fa65c	-0.2805661
104	0x3eee38ca	0.46527702
105	0xbe9b9d73	-0.30393562
106	0x3e2b9b9d	0.1675858
107	0xbf2bd941	-0.6712838
108	0xbdbce11a	-0.09222622
109	0x3f4f36b5	0.8094285
110	0x3ea2b223	0.31776533
111	0x3edc9ede	0.43089956
112	0x3d5d1dd0	0.05398351
113	0x3f27e01f	0.65576357
114	0xbecde908	-0.4021685
115	0xbe1527ee	-0.14566013
116	0x3eb61b5b	0.35567746
117	0xbe8cc68b	-0.27495226
118	0xbdee9cad	-0.11650977
119	0xbf537c41	-0.8261147
120	0x3e6faadf	0.23405026
121	0xbe313a62	-0.17307428
122	0x3efa05a8	0.4883244
123	0x3e0ec804	0.13943487
124	0x3e0c6ea5	0.13714083
125	0xbc965b81	-0.01835418
126	0x3dc74419	0.097297855
127	0xbf269741	-0.65074545
128	0xbed89004	-0.42297375
129	0xbf086ad1	-0.5328799
130	0x3eb5a5f6	0.3547818
131	0xbe8465c0	-0.2585888
132	0x3efdcc66	0.49570006
133	0x3e8721b5	0.26392904
134	0xbf28f7d4	-0.66003156
135	0x3f0f9a18	0.56094503
136	0x3f0e1474	0.5549996
137	0xbf25b041	-0.6472207
138	0xbea14499	-0.31497648
139	0xbe5fbd76	-0.21849617
140	0x3e430ee7	0.19048654
141	0xbe16db7a	-0.14732161
142	0x3d986f51	0.07443107
143	0xbdccbe49	-0.099972315
144	0x3e81a024	0.2531749
145	0xbde2e041	-0.11077929
146	0xbe5e8243	-0.21729378
147	0x3d7bc261	0.06146467
148	0xbe9aafe7	-0.30212328
149	0xbe144240	-0.14478397
150	0x3ddd633b	0.10809942
151	0x3e57daf8	0.21079624
152	0xbdb93cfd	-0.09044836
153	0xbd8b51b4	-0.06802693
154	0xbe29f147	-0.16595946
155	0xbaf0e930	-0.0018380042
156	0x3e3cd499	0.18440475
157	0xbddb93a1	-0.10721517
158	0x3e413625	0.18868311
159	0x3e1c45af	0.15260957
160	0xbd043431	-0.032276336
161	0xbd96b9c3	-0.0735965
162	0xbec73a93	-0.38911876
163	0xbe27611c	-0.16345638
164	0x3d72f561	0.059316043
165	0x3e31067e	0.17287633
166	0xbe5f9862	-0.21835473
167	0x3e87c9be	0.26521105
168	0xbea41991	-0.32050756
169	0xbe36260f	-0.17787956
170	0xbdfd8bd4	-0.12380186
171	0xbe20b9ae	-0.15695831
172	0xbe4a270d	-0.19741459
173	0x3e5b82fe	0.21436688
174	0xbdc4c74f	-0.096083276
175	0x3d3cf8a9	0.04613558
176	0xbde7ff22	-0.113279596
177	0xbdbd5b4e	-0.092459306
178	0x3e4fc82c	0.20291203
179	0x3d7e4494	0.06207712
180	0xbd3ae038	-0.045623988
181	0xbe99543a	-0.29947072
182	0x3ed36490	0.4128766
183	0x3e48892f	0.19583581
184	0xbee86b34	-0.4539429
185	0x3eef4c58	0.46737933
186	0xbe3dd505	-0.18538292
187	0x3eebb1f3	0.46034202
188	0x3f1e9d0b	0.6195838
189	0xbf4c0599	-0.7969604
190	0xbea6d9e7	-0.3258812
191	0xbcdd911d	-0.027046734
192	0x3f16db68	0.5892854
193	0xbf0e18d0	-0.5550661
194	0x3eab9285	0.33510223
195	0xbefa7bbc	-0.48922527
196	0xbeddf07a	-0.43347532
197	0x3ea37d03	0.31931314
198	0x3d8c0f82	0.068388954
199	0x3e173030	0.14764476
200	0xbe54d637	-0.20784841
201	0x3e808a63	0.2510558
202	0x3e469c33	0.19395523
203	0xbd472005	-0.04861452
204	0x3e281cd6	0.1641725
205	0xbe9ef55f	-0.31046578
206	0x3e367995	0.17819817
207	0x3cf32f86	0.029685747
208	0xbebcb561	-0.3685713
209	0x3ddeffb1	0.10888613
210	0xbe0c9d07	-0.13731776
211	0x3d1c8ff3	0.03822322
212	0x3e2363e1	0.1595607
213	0x3e0cff86	0.1376935
214	0xbe181ee1	-0.1485553
215	0x3e38cafd	0.18046184
216	0x3ef01100	0.4688797
217	0xbe819c3f	-0.2531452
218	0xbe2dfd85	-0.16991241
219	0x3e29cdbc	0.16582388
220	0x3e07560d	0.1321642
221	0x3dcb6731	0.099317916
222	0xbb632a14	-0.0034662532
223	0xbdcea575	-0.10090152
224	0xbe506ee3	-0.203548
225	0x3ec1577a	0.37762052
226	0x3e1bd201	0.15216829
227	0x3e4003e6	0.18751487
228	0x3e9dc6c1	0.308157
229	0x3ebb645b	0.36600003
230	0xbe952810	-0.29132128
231	0xbef03e69	-0.46922615
232	0xbd97a664	-0.07404783
233	0xbdb1f5ec	-0.08689484
234	0x3eb1be4e	0.34715503
235	0x3eed035b	0.46291623
236	0xbec04b02	-0.37557226
237	0x3e9a5409	0.3014224
238	0x3ccba1ed	0.024857486
239	0x3d6f4ae3	0.058421027
240	0x3e0e975b	0.13924925
241	0xbe8a45cb	-0.27006373
242	0x3d90e1d4	0.07074323
243	0xbd0cc6da	-0.034369327
244	0x3d011cd1	0.031521622
245	0xbeb05306	-0.34438342
246	0x3d63aefe	0.055586807
247	0xbe32e129	-0.17468704
248	0x3e706fbe	0.23480126
249	0x3d3525ae	0.044225387
250	0x3e2ffdc9	0.17186655
251	0xbe2f9fd4	-0.17150813
252	0x3d51dc02	0.051235206
253	0x3e4e469c	0.20144123
254	0x3e437a58	0.19089639
255	0x3f0ae65d	0.54257756

fc1.0.bias f4 [20]
0	0x3e463b68	0.19358599
1	0xbe80d785	-0.25164428
2	0x3d2bedbf	0.04197478
3	0xbe0f341d	-0.13984723
4	0xbe15a1ed	-0.14612551
5	0x3d8d3a2a	0.068958595
6	0xbdb19ce2	-0.08672501
7	0xbe80dc7c	-0.25168216
8	0xbe309201	-0.17243196
9	0xbe46610d	-0.1937296
10	0x3e5fd8e4	0.21860081
11	0x3e37ed0b	0.17961518
12	0x3c691477	0.014226071
13	0xbd83f0a9	-0.06442387
14	0x3e73edad	0.23821135
15	0x3e507670	0.2035768
16	0x3e366e98	0.17815626
17	0xbe2bfd0f	-0.16795753
18	0x3e22bdff	0.1589279
19	0xbd90a3c5	-0.070624866

fc1.1.weight f4 [10, 20]
0	0x3e9a2c2e	0.3011183
1	0x3d783ba1	0.06060374
2	0xbda17291	-0.0788318
3	0x3e1b1f16	0.15148577
4	0x3e78f28f	0.24311279
5	0xbe8143bd	-0.25246993
6	0xbea9298e	-0.33039516
7	0xbeaa2434	-0.33230746
8	0xbe736f94	-0.23773032
9	0x3decd1fb	0.11563488
10	0xbd04267f	-0.032263275
11	0xbce2f425	-0.027704308
12	0x3e71e42e	0.236222
13	0xbd8e0115	-0.069338
14	0x3d5031c5	0.050828714
15	0xbd84add3	-0.06478467
16	0x3d04d038	0.032425135
17	0xbe2a3703	-0.16622548
18	0x3e4dff14	0.20116836
19	0x3e5fac8d	0.21843167
20	0x3e91efe5	0.28503338
21	0xbef4e1a8	-0.47828412
22	0xbe84edb7	-0.25962612
23	0xbde62c1b	-0.11238881
24	0xbecb02ba	-0.39650518
25	0x3caf68ec	0.021412335
26	0xbba1d276	-0.004938419
27	0xbe258009	-0.16162123
28	0x3e0be27b	0.13660614
29	0x3d44c6de	0.048041217
30	0x3e937078	0.28796744
31	0x3e35ed41	0.17766286
32	0x3d40c85d	0.04706608
33	0x3e0e4f84	0.1389752
34	0x3e8a8e5a	0.2706173
35	0x3eaae2e5	0.33376232
36	0x3e31a839	0.17349328
37	0x3d360e62	0.04444731
38	0x3e729508	0.23689663
39	0x3d456e41	0.04820085
40	0xbe970c9e	-0.29501814
41	0x3ebca4df	0.36844537
42	0xbd6c4669	-0.057684336
43	0xbea527af	-0.3225684
44	0xbe0c1283	-0.13678937
45	0xbe0cdfb4	-0.13757211
46	0xbf018ca8	-0.5060525
47	0xbdfb3e3e	-0.12267731
48	0x3df00b95	0.11720959
49	0x3e9510ba	0.29114324
50	0xbe4ecb45	-0.20194729
51	0x3e855393	0.26040325
52	0x3e40313f	0.18768786
53	0xba03ec0f	-0.0005032429
54	0x3db57509	0.08860213
55	0x3d08c021	0.033386353
56	0x3e298966	0.1655632
57	0x3d800f8c	0.06252965
58	0xbc5f129e	-0.0136152785
59	0x3e888497	0.26663658
60	0x3e1351e9	0.14386715
61	0xbd615726	-0.05501475
62	0x3ce0c823	0.027439183
63	0x3cfa3e93	0.030547416
64	0xbcb1ada5	-0.021689245
65	0x3d02b159	0.031907413
66	0xbb3fcb45	-0.0029265445
67	0x3d6221c5	0.055207986
68	0x3d6fd22f	0.058550056
69	0x3ca676fd	0.02032041
70	0xbdc6bbbc	-0.09703776
71	0x3d0a8fbe	0.03382849
72	0xbd288914	-0.041146353
73	0xbcb9f7d9	-0.02270119
74	0xbd54dfca	-0.051971234
75	0x3e4476c2	0.19185928
76	0xbd99e248	-0.07513863
77	0xbccbabdb	-0.02486222
78	0xbdabd0ae	-0.08389412
79	0xbbd516cf	-0.006502963
80	0x3d2ecba8	0.04267469
81	0xbdc0d5a2	-0.09415747
82	0x3d0021f8	0.031282395
83	0x3d4a656b	0.049413126
84	0xbc4f4df9	-0.0126528675
85	0x3a4a8738	0.00077258376
86	0x3c014a2c	0.007891219
87	0x3b65fb92	0.0035092575
88	0xbc3f2fbb	-0.011669095
89	0x3b39ec29	0.0028369522
90	0xbd8785e4	-0.066173345
91	0x3b771619	0.003770238
92	0xbc85417a	-0.016266573
93	0xbcb86b81	-0.0225122
94	0xbd81a70a	-0.06330688
95	0x3e0955d4	0.13411647
96	0xbc86b13d	-0.016441936
97	0xbd0e154d	-0.034688283
98	0xbd42491b	-0.047433
99	0x3d31ac62	0.043377288
100	0x3d320cdd	0.0434693
101	0xbc035b20	-0.008017331
102	0x3b7dd55f	0.0038731915
103	0xbb1e05e3	-0.0024112395
104	0xbbd2d5e3	-0.0064341887
105	0x3c16c8a0	0.009203106
106	0xbac6504e	-0.0015130134
107	0x3ca2c44f	0.019868998
108	0x3cfe0142	0.03100646
109	0xbb412424	-0.0029471004
110	0xbd198564	-0.037480727
111	0x3bdde30a	0.00677145
112	0xbc82aa4a	-0.01595034
113	0xbc0edd3a	-0.008719737
114	0xbbb80312	-0.0056156004
115	0x3d49b618	0.049245924
116	0xbcf81155	-0.030281702
117	0xbc248d28	-0.01004342
118	0xbcc1d04c	-0.023658894
119	0xbc385f25	-0.011253153
120	0xbed0c2a7	-0.40773508
121	0xbe59d1fb	-0.21271507
122	0x3e302e7d	0.17205234
123	0x3dbb4418	0.09143847
124	0xbc4268fc	-0.011865851
125	0x3e205cdb	0.15660422
126	0x3dca76a5	0.09885911
127	0xbdfd91d4	-0.1238133
128	0xbd366b0f	-0.044535693
129	0x3d84a949	0.06477601
130	0x3dcf7147	0.10129028
131	0xbe25748a	-0.16157737
132	0x3d59f411	0.053211275
133	0x3e63a3b8	0.22230422
134	0xbe4c953b	-0.19978802
135	0x3b8d65c5	0.0043151104
136	0xbeaaa6fe	-0.3333053
137	0xbdab1b78	-0.083548486
138	0x3db9db48	0.09075028
139	0xbe5c5972	-0.21518496
140	0x3e55e70a	0.20888916
141	0xbe8a3ec7	-0.2700102
142	0xbbd1684d	-0.0063906075
143	0xbe03a53a	-0.12855998
144	0x3ece73af	0.40322635
145	0x3e98e116	0.29859227
146	0x3e475837	0.19467245
147	0xbe29f143	-0.1659594
148	0xbdb5f813	-0.08885207
149	0xbed87635	-0.42277685
150	0x3e4ff097	0.20306621
151	0x3e0ae84a	0.13565174
152	0x3c5756bf	0.0131432405
153	0xbef6dfb7	-0.48217556
154	0xbe374a83	-0.17899518
155	0xbdaa7384	-0.08322814
156	0x3d71cf45	0.05903556
157	0xbb170b91	-0.0023047666
158	0x3e8a6ec9	0.27037647
159	0x3d32b08a	0.043625392
160	0x3ef2b659	0.47404745
161	0xbe866d4c	-0.26255262
162	0x3c16e487	0.009209759
163	0xbdab5e8f	-0.08367645
164	0xbe9324ac	-0.28738916
165	0x3f03fc91	0.5155726
166	0xbea12ccf	-0.314795
167	0xbebb89c4	-0.36628544
168	0x3dc6e3ee	0.09711443
169	0xbe3bb8e8	-0.18332255
170	0xbe78484b	-0.24246328
171	0xbde6ab51	-0.11263145
172	0xbdc204e5	-0.0947359
173	0x3b158eac	0.0022820635
174	0xbdb2046e	-0.08692251
175	0xbc18af4b	-0.009319137
176	0x3bf13b58	0.0073618107
177	0xbd000ccd	-0.031262208
178	0x3e2eddbd	0.17076774
179	0xbe5217a5	-0.20516832
180	0x3ed34cc2	0.412695
181	0x3cd88f12	0.026435409
182	0xbe03e255	-0.12879308
183	0xbe7dd636	-0.24788746
184	0x3cb96f9f	0.022636233
185	0xbed25133	-0.41077575
186	0xbdc8c3f0	-0.09802997
187	0xbe54944a	-0.20759693
188	0xbe618a42	-0.22025397
189	0x3ec0f1bd	0.37684432
190	0xbe8b9557	-0.27262375
191	0x3e0f1352	0.13972214
192	0xbd1f408c	-0.038879916
193	0x3e2a9ac1	0.16660596
194	0x3d5de354	0.054171875
195	0xbe239be5	-0.15977438
196	0xbda3a66e	-0.07990728
197	0xbdb7bf6f	-0.0897206
198	0xbd67906b	-0.056534212
199	0x3df3bc35	0.11901132

fc1.1.bias f4 [10]
0	0x3dd6ce69	0.10488588
1	0xbd098504	-0.03357412
2	0xbe70fb17	-0.23533283
3	0x3c07d63a	0.008290822
4	0xbae31fc5	-0.0017328194
5	0x3b4f07ce	0.0031590345
6	0xbdbdf734	-0.09275666
7	0xbd827e62	-0.06371762
8	0x3db9025b	0.090336524
9	0x3e7a5bee	0.24449131

fc_final.weight f4 [1, 10]
0	0x3e6c7cc8	0.23094475
1	0x3e4e1033	0.20123367
2	0xbe835ed2	-0.2565828
3	0xb99b8af9	-0.00029667447
4	0x3a1a8518	0.00058944663
5	0xb9fcb9e1	-0.00048203676
6	0xbc7d8ad1	-0.015474991
7	0x3dc71367	0.097204976
8	0x3e31fbef	0.17381261
9	0x3e7071e4	0.23480946
