examples/sgnn/model1.pth (torch, 20196 bytes, 11 tensors)

fc0.0.weight f4 [40, 52]
000000 9a 0c 67 3d a3 13 a2 bd b8 31 99 bc ae 48 97 bd
       0.056408502 -0.07913902 -0.018700466 -0.073869094
000010 b4 d5 fa b9 6b fb 13 be 2a d2 c8 bd 27 e4 fb bd
       -0.00047842937 -0.14451377 -0.098057106 -0.12299376
000020 bd 8a 95 3c e6 cd 74 bd c3 98 47 ba d5 d1 d8 bc
       0.018254632 -0.059766673 -0.0007614011 -0.026467243
000030 39 71 3a be e9 67 b9 bd 73 89 fa bd 53 66 ae bd
       -0.18207254 -0.090530224 -0.122332476 -0.085156105
000040 c6 1e 8e bd 68 63 aa 39 53 9e cf bd b7 26 04 3e
       -0.06939463 0.0003249899 -0.1013762 0.12905394
000050 57 3b ef bd 79 32 05 3e 3c 8f c9 3d 73 e5 a0 3c
       -0.1168124 0.13007535 0.09841773 0.01964066
000060 bf 1c 13 bd 73 f4 19 3f c0 69 10 3d ee 2a 81 bd
       -0.035916086 0.60138625 0.0352571 -0.06307016
000070 e6 1a 8d bd e7 af 42 be 55 a4 4c be 34 4f 96 3e
       -0.06889896 -0.19012414 -0.19984563 0.29357302
000080 81 87 48 3b 39 ac 09 bc d8 45 a4 3d 2b cf 02 3e
       0.0030598345 -0.0084028775 0.08021134 0.12774341
000090 1b ec 9f 3e 8b ea 80 be 08 40 25 3e d1 ad 2b 3e
       0.31234822 -0.25178942 0.16137707 0.16765524
0000a0 d9 19 33 bc 35 3c dc 3d a7 83 d9 3c 5e 34 5c 3e
       -0.0109314555 0.10753671 0.026552035 0.21504351
0000b0 6f 1a eb bd 02 ee 97 bd 68 bd 29 3d b3 d2 01 be
       -0.11479651 -0.07418443 0.041440398 -0.12678032
0000c0 32 bd 18 be 6f ca 58 3e 33 60 61 be d4 93 68 3e
       -0.14915922 0.21170972 -0.22009353 0.22712642
0000d0 9d b1 ce 3d 1e 73 96 3d 93 ba 10 bd 0a 07 ce 3d
       0.10092471 0.073461756 -0.03533418 0.10059936
0000e0 c1 0a 2f 3e 22 be 16 be 96 93 34 bd 3c 82 60 3c
       0.17093946 -0.14720967 -0.04408606 0.013702925
0000f0 a7 56 29 bc da 29 a1 bc c5 8e ef bd 85 74 bb 3d
       -0.010335601 -0.019673277 -0.11697153 0.09153084
000100 32 ed bc bd c1 77 77 3c 63 44 95 3c b8 92 ef 3c
       -0.09224929 0.015104235 0.018221086 0.029244766
000110 1a c3 90 bd c5 1d 8a 3c 5f 71 33 3d 19 3f aa bd
       -0.07068463 0.016859898 0.04380929 -0.08312816
000120 0c c3 5b 3d 65 db 77 bd 89 d7 ac bc 68 45 c7 3d
       0.053652808 -0.060511965 -0.021098869 0.09730035
000130 ac 5c 9f 3d 7b d8 d3 3c 97 32 d3 3c 8e 41 50 be
       0.07781348 0.025860062 0.025780959 -0.20337507
000140 f5 ce e2 3d 72 8b 22 bd 3a f2 49 3e 5c 5c 0f be
       0.1107463 -0.039683767 0.19721308 -0.14000076
000150 4c 0e d9 be 9c a0 72 3e e4 ea 08 be d2 e5 39 bd
       -0.4239372 0.2369408 -0.13370854 -0.04538519
000160 92 a6 a7 bc 68 7b cc be 21 93 8b 3e 51 de 30 bf
       -0.02046517 -0.39937901 0.27260688 -0.6908923
000170 81 3a b4 bd 2c 4f 59 be 12 62 16 3e 08 e2 ec 3e
       -0.08800221 -0.21221608 0.14685848 0.46266198
000180 c9 2a b4 be 3e 1e f4 be 30 0e da bd 90 0a 11 bf
       -0.35188892 -0.47679323 -0.10647237 -0.5665674
000190 0e 16 fb 3d 67 a2 a3 be 25 37 c2 3e 59 f7 78 3e
       0.12260066 -0.3195984 0.37932697 0.24313106
0001a0 81 b9 c3 3d da dc ad bc 90 a4 51 bd a7 02 d0 bd
       0.095568664 -0.021223474 -0.05118233 -0.10156756
0001b0 a4 bf 02 3e 20 3f 2b 3e 18 e0 86 bb 82 43 44 bd
       0.12768418 0.16723299 -0.0041160695 -0.047915943
0001c0 e0 dd 01 3e 70 f3 9a 3d d1 58 1b 3c a2 83 ff 3b
       0.12682295 0.07565963 0.009481625 0.0077976743
0001d0 c8 87 cd 3d e3 75 c1 3c 45 dd fa 3d a6 7c 7e 3e
       0.10035664 0.023615783 0.12249235 0.24852237
0001e0 76 1a 33 3e c6 1d 1e bd 46 74 1b 3e 82 11 55 3d
       0.17490563 -0.038602613 0.15181074 0.05201865
0001f0 6a cb 41 3c 05 f5 26 3d 05 b9 91 3d 0c b6 58 3e
       0.011828283 0.040761013 0.07115368 0.21163195
000200 65 14 54 be 11 8a 66 be 9b 52 b7 3d a9 f3 12 3c
       -0.20710905 -0.22513606 0.089513026 0.008969226
000210 aa ea bd 3d a0 fd 26 be 60 0b fd be bc f6 af 3e
       0.09273274 -0.16307688 -0.4942274 0.3436793
000220 37 fb 34 be d2 a9 e4 be 1e 2a c5 bd 25 fd 60 be
       -0.17673956 -0.44660813 -0.09627174 -0.21971567
000230 30 0a 74 be 7f ae 0d be d1 f9 83 3e a1 17 ed 3e
       -0.23832011 -0.13836096 0.25776532 0.4630709
000240 19 c7 f0 3c b4 d9 81 bd 9a 77 b0 3d 0d 97 e2 3e
       0.029391812 -0.06340352 0.08616562 0.44255868
000250 4c a9 38 be 09 46 b4 be ce d1 74 3d ec 8f 25 be
       -0.18033332 -0.35209683 0.059770398 -0.16168183
000260 6a da 8f be 5b 42 9c be 57 d9 87 be b7 4b 1c bf
       -0.28096324 -0.30519375 -0.26533005 -0.6105303
000270 c5 d7 9e 3d 57 ca 5f 3d 4e 71 b2 3d 56 7b af bd
       0.077559985 0.054636326 0.087130174 -0.08568446
000280 68 7b 75 bd 3d 98 75 3d b7 6e 46 3e 62 b8 67 bc
       -0.059932142 0.05995964 0.19378172 -0.014143081
000290 83 5c e4 3d cd fe ed 3d 16 3c b2 3d 02 23 6e 3d
       0.11150458 0.11620865 0.08702867 0.058138855
0002a0 e9 c9 4e 3d 2b 89 7b 3d 9f a1 02 3d 70 fa 82 bc
       0.050485525 0.06141011 0.031892415 -0.015988559
0002b0 79 54 db bd b9 c5 81 bc d5 76 0e be ae 80 b5 bd
       -0.10709471 -0.015841352 -0.13912518 -0.08862434
0002c0 80 a0 40 bd 9a 4b af bd 0d 18 8b 3d 41 4b 24 be
       -0.047028065 -0.08559342 0.06791697 -0.16044332
0002d0 f9 93 82 be fa 2c 30 be dd 0b 9e 3c c2 9f 01 bb
       -0.2550352 -0.17204657 0.019292766 -0.001977906
0002e0 0c 7a 51 3e cd 64 4a be e6 35 9f be 7d 36 d4 3e
       0.20456713 -0.19765015 -0.3109581 0.4144782
0002f0 90 e2 f1 3e bd 6f 0c bd 90 80 67 3e 8e 4d fe 3d
       0.47243166 -0.03428625 0.22607636 0.12417136
000300 5b ae c6 3e ee 30 c8 3e 07 05 b7 3e eb 00 9b 3e
       0.38804898 0.3909983 0.35746023 0.30274138
000310 3b d5 76 3e 6e a0 bd 3e 1c 63 5d 3e bf f9 85 3e
       0.24104778 0.3703646 0.21619838 0.26167104
000320 a9 1d cc 3d 3a 1a b3 3d 74 af 97 3d 82 1b 8b 3e
       0.09966595 0.08745237 0.07406512 0.27169424
000330 e2 ff 8a 3e 6d 22 22 3d 46 96 24 3d 05 6a 36 3e
       0.27148348 0.039583612 0.040182374 0.1781388
000340 f4 7d eb 3d d8 d4 d0 bd f8 47 4d bd 7e 80 ee 3d
       0.11498633 -0.10196847 -0.050117463 0.11645602
000350 a4 05 ca 3d 18 03 ba bd 21 32 dd 3d e4 70 2c be
       0.09864357 -0.09082621 0.10800577 -0.1683994
000360 3b df 0b 3e 2e 38 bc 3d 2a da d0 3b 36 d8 08 be
       0.13659374 0.09190403 0.0063736634 -0.13363728
000370 75 93 71 be 6a da 02 be f9 a1 fb 3d 49 34 b8 3e
       -0.23591407 -0.12778631 0.12286753 0.3597739
000380 28 db a9 bd bb 0a 8b bd 58 ea c5 3d 4d a3 8c bd
       -0.08293754 -0.06789156 0.09663838 -0.06867085
000390 e1 b9 c7 3d 66 d6 5d bd ce 82 b9 bd 41 5b 99 3e
       0.097522505 -0.054159544 -0.09058152 0.29952434
0003a0 bf 60 38 3e 6b 0d 3f 3d 91 88 39 3d 55 f3 c3 3d
       0.18005656 0.046643656 0.045296255 0.09567896
0003b0 4b a3 0d be d1 3e 0f be a3 f6 9e 3d 90 10 6a bb
       -0.13831823 -0.13988806 0.07761886 -0.0035715438
0003c0 bc 1e e5 bd 6a d5 b0 3d 52 c6 01 be 27 72 0c 3e
       -0.11187503 0.086344555 -0.1267331 0.1371542
0003d0 45 b7 30 3d 1a 17 ac 3e 19 1f 84 be 35 93 c2 3e
       0.04314353 0.33611375 -0.25804976 0.38002935
0003e0 ec b8 c2 3d 9f 47 35 bd e0 e7 a9 3e 0a 0d 4b bf
       0.09507927 -0.044257756 0.3318472 -0.7931677
0003f0 66 d8 d3 be ff 4d d8 3d ee 6b 64 bf cd fe 05 bf
       -0.41376036 0.105617516 -0.8922719 -0.5234192

fc0.0.bias f4 [40]
000000 d9 60 ff ba 76 bb 2a 3c ec 59 36 3e 7f 6d df bd
       -0.0019483819 0.010420671 0.1780774 -0.109095566
000010 26 6f be bd c0 5d 4b 3e 2e cc 25 3d 80 57 8d 3c
       -0.09298544 0.19859982 0.040477924 0.017253637
000020 b0 d0 f3 bd 69 fc 09 bd 9f 02 c8 3d 7e 0a fe 3d
       -0.11905038 -0.033687983 0.09766125 0.12404345
000030 68 e9 d3 3d d3 02 21 bd ff 63 1c be 84 f5 d0 bc
       0.10347253 -0.039309334 -0.1527252 -0.025507696
000040 04 f8 f3 bd 91 e3 d3 3c ee e8 6f 3d eb cf 71 bd
       -0.119125396 0.025865348 0.05857175 -0.059036177
000050 3b e9 c5 bd 8e d3 95 bd 2d 7d 1d bb 36 e1 08 3e
       -0.09663626 -0.073157415 -0.002403091 0.13367161
000060 05 cd ff bb 6e 6a 7a bd f5 ce 8a bd 6e 26 65 3d
       -0.0078064227 -0.061136656 -0.06777755 0.055944853
000070 1b 4a 3e bc a8 9f 80 3b c8 28 5f bc 05 d5 0d be
       -0.011614348 0.0039252825 -0.013620563 -0.13850792
000080 45 ab 1a 3e b3 b3 a0 bc a8 6d ea 3d a8 80 55 3d
       0.15104397 -0.019616937 0.114466965 0.05212465
000090 39 ff 3e 3d 30 9c b6 bc 3e 99 64 bd fe 44 2c bd
       0.046630118 -0.022291273 -0.055810206 -0.042057984

fc0.1.weight f4 [20, 40]
000000 24 1f 78 bd 10 11 5f be cb c7 24 3e e9 62 98 be
       -0.060576573 -0.21783853 0.1609184 -0.29762962
000010 3c 5d 01 be d5 45 32 be ba bb 90 3d 9a 60 30 3e
       -0.12633222 -0.17409451 0.07067056 0.1722435
000020 86 14 9c 3d fd 6f 67 be a3 b0 98 3e 06 d0 39 3e
       0.07621102 -0.22601314 0.29822263 0.18145761
000030 6b 9c 07 be 82 2b bb bb d8 43 79 be ac 9d 6d 3e
       -0.13243262 -0.0057119736 -0.24342287 0.23204678
000040 17 fb 03 3e 7e c0 3b be 76 eb 85 bd a9 7b c3 be
       0.12888752 -0.18335149 -0.06539051 -0.38180283
000050 19 1f 40 bc db 90 65 be 45 7a d5 bd b7 16 13 3e
       -0.011726164 -0.22418539 -0.10423712 0.14364134
000060 ac 26 a5 3c 33 fe 55 3c de 7c b3 3a 54 bd 37 be
       0.020160042 0.013061094 0.001369383 -0.17943317
000070 77 1b a3 bd 4f 76 c1 3e 6c 1f aa 3d 97 75 0c be
       -0.07964223 0.37785575 0.083067745 -0.13716732
000080 d2 41 5f 3c 04 41 06 be b3 40 6d 3d 11 67 93 be
       0.013626533 -0.13110739 0.05792303 -0.2878957
000090 ba b8 cf bd 49 b2 93 3e fa 90 08 bd 5c 71 9e 3c
       -0.10142656 0.28846958 -0.033341385 0.019341163
0000a0 5c df 44 bc 43 13 10 3e b3 20 c7 3c 82 d4 a8 be
       -0.012016144 0.14069848 0.024307584 -0.3297463
0000b0 34 d7 e7 be 85 bf 19 3e 86 5c a1 be 75 1d c5 bd
       -0.45281374 0.15014465 -0.31515902 -0.09624759
0000c0 1c 53 3c 3d 44 5d 3d 3e b7 a4 83 bc 43 b8 08 3c
       0.045977697 0.1849261 -0.016069753 0.008344713
0000d0 92 bb 2b be 3c 8e eb bc 0b 80 02 3f 45 b3 46 be
       -0.16770771 -0.028754346 0.5097663 -0.19404323
0000e0 42 8b 54 bc 03 f7 1d bd 8f 21 54 3e e7 62 58 be
       -0.012972655 -0.038565647 0.20715927 -0.21131478
0000f0 6a 99 25 bf ea 53 af 3e bc 15 39 bc fa fb 72 bd
       -0.64687216 0.3424371 -0.011296686 -0.059322335
000100 b4 fc d7 bd 28 64 42 bd c5 74 5d bd d2 87 84 bd
       -0.10546246 -0.047458798 -0.05406644 -0.06471218
000110 52 ca 88 3b d4 e1 19 be 29 c2 19 be 21 78 f7 bd
       0.004174509 -0.15027553 -0.15015472 -0.1208346
000120 ad 45 7c 3e 66 89 8e 3d ad 64 9b 3e 71 d3 d7 3e
       0.24635954 0.069598004 0.30350247 0.42153504
000130 62 87 32 3e 59 34 ee 3d f1 f5 74 3f e7 23 04 be
       0.17434457 0.11631078 0.95687777 -0.1290432
000140 f0 8b 28 be b5 35 59 be c9 9a 02 be 8f 77 1d 3e
       -0.16459632 -0.21211894 -0.12754358 0.15377639
000150 3b fe d3 3e bb 5e 0f be df 9d f8 3c 71 18 4d bc
       0.414049 -0.1400098 0.030348716 -0.012518034
000160 5d ba a5 3d 7e c4 5e 3e b1 30 26 3c 67 9b 77 bc
       0.080921866 0.21754643 0.010143445 -0.015112734
000170 1d dc 32 3e 89 31 e1 3d c8 2e 42 3e 69 f8 1b be
       0.17466779 0.10995776 0.18963158 -0.1523148
000180 9f 09 d3 3d 63 fe b0 be 73 98 0e 3e 0a d9 92 bc
       0.103045695 -0.34569082 0.13925342 -0.017925758
000190 a2 c2 01 be 10 60 5f be e1 fa fb 3d da b7 1d 3e
       -0.12671903 -0.21813989 0.12303711 0.15402165
0001a0 f5 b3 9e be ee b3 5c 3e 78 0b 5a 3e ba 69 04 be
       -0.3099667 0.21553013 0.21293437 -0.12930956
0001b0 e4 a2 0a bd 25 d5 14 be 11 6d b3 3c 9b 00 ad bd
       -0.03384675 -0.14534433 0.021902593 -0.08447381
0001c0 6f c4 3c 3e f7 71 70 be f0 79 82 bd e5 ef 15 be
       0.18434308 -0.23480974 -0.06370914 -0.14642294
0001d0 e1 fd 54 3e b2 6e 16 be 86 c3 c8 be 53 e9 e7 bd
       0.20799972 -0.14690664 -0.39211673 -0.113238
0001e0 5f e0 b8 3c 17 8b e4 3d 0f f1 29 be 39 52 2d 3e
       0.022567926 0.11159342 -0.16595863 0.16925897
0001f0 f3 82 a6 be 6d 88 3f bd 8b f6 64 be a3 6e 84 bd
       -0.3252178 -0.046760965 -0.22359674 -0.06466415
000200 9e ad c6 3d d7 7a 6c bd 05 b8 0f be aa 5b 37 be
       0.097010836 -0.057734337 -0.14035042 -0.17906061
000210 d6 ca 53 bd fb 77 3a bc 1f 9e 97 3d 09 cc 3c be
       -0.05170711 -0.011381145 0.07403206 -0.18437208
000220 ad 35 bf bd 6d 1d ad bd 60 07 15 be d7 42 83 3e
       -0.0933641 -0.08452878 -0.14553595 0.25636932
000230 b4 37 80 bc 92 29 23 bd ff 94 08 be 42 0b 49 bd
       -0.015651561 -0.039834566 -0.13338087 -0.049083002
000240 7d 0f f4 bd 3c 6f 10 be a7 4f a8 bd 95 0d e9 bd
       -0.11917017 -0.14104933 -0.082183175 -0.11379544
000250 49 2c df 3d f6 ac a6 be 3e 4d 87 bd 11 62 24 3e
       0.108971186 -0.32553834 -0.0660653 0.16053034
000260 77 0f ab bd 85 db b4 bd e8 fa 37 be 23 c7 5d be
       -0.08352559 -0.088309325 -0.17966807 -0.21657996
000270 33 36 8d 3d e9 73 14 be ac 08 e7 bd 2a 36 71 bd
       0.06895103 -0.14497341 -0.11280951 -0.058889546
000280 8e 85 97 bd 9c f6 1f be 98 ff 09 be 8b 6b 34 3c
       -0.073985204 -0.15621418 -0.13476408 0.011011968
000290 78 ae 92 be d3 66 96 3e c4 7b d8 be d8 89 f3 bd
       -0.28648734 0.29375324 -0.42281926 -0.11891526
0002a0 37 c5 99 bd d6 8d 95 3e c7 c7 81 3e b0 3d 5d bd
       -0.07508319 0.29209775 0.2534773 -0.054013908
0002b0 07 46 a2 3d f6 dc 26 be ea 43 d0 be 5c 0a e6 bc
       0.07923513 -0.16295227 -0.40676814 -0.028081112
0002c0 0f 4a 26 bd 55 64 dc 3e e9 60 54 3e 53 93 77 be
       -0.04059797 0.43045297 0.20740093 -0.24177293
0002d0 09 50 db be 2b 3b 29 be 64 1d df bd dc af 05 3e
       -0.428345 -0.16526477 -0.10894278 0.13055366
0002e0 d7 2a 61 be 1c 15 88 3d a9 e0 9d 3e 9b 0d 36 be
       -0.21988998 0.06644651 0.30835465 -0.17778628
0002f0 05 b3 35 be 68 00 e1 3d bb 47 80 bc 77 c0 c2 3e
       -0.17744072 0.109864056 -0.015659204 0.38037464
000300 e7 d0 81 be fe 70 55 be 35 3a ed 3a ea 7f 64 bd
       -0.25354692 -0.20843884 0.0018099012 -0.05578605
000310 fa f2 04 be c3 76 03 3f 58 7f 17 bf 9c 8b 7d 3e
       -0.12983313 0.5135309 -0.59178686 0.24760288
000320 2c 9f 24 3e c6 a5 78 be 08 fd 21 3b 1e 11 90 3e
       0.16076344 -0.24281988 0.0024717469 0.2813806
000330 fb ed 39 3e 5b bb 12 be c9 20 3d 3e 9e 16 64 3e
       0.18157189 -0.14329283 0.18469538 0.22274253
000340 0c b6 1f 3e 84 f1 59 be de c3 81 3d ba 3a 43 be
       0.15596789 -0.21283537 0.06336187 -0.19065371
000350 39 33 26 be 1d 6a 18 3e d4 2e 8b be ef 1e bb be
       -0.16230477 0.14884229 -0.27184165 -0.36547038
000360 5c 99 6e bd 47 e4 0e 3e 1a 85 0e bd 62 f2 5a be
       -0.058251724 0.13954268 -0.034794904 -0.21381524
000370 d5 0a b9 be a3 2f 7b be 3c 13 d5 3c 4f b1 ba bd
       -0.36141077 -0.2452989 0.026010148 -0.0911585
000380 89 66 fb 3e 63 d4 95 3c 23 a0 ac 3e 21 9a 90 3e
       0.49101666 0.01828975 0.33715925 0.2824259
000390 11 92 3e 3e e8 fd 01 3e 17 a6 d9 bc 26 90 01 3d
       0.18610407 0.12694514 -0.026568456 0.03163161
0003a0 25 fa 0b bc 19 51 fd 3d c7 d9 db 3d 5e 0e de bd
       -0.008543526 0.12368984 0.10734897 -0.10842584
0003b0 8a 9e 65 3d 17 f2 8d bd c9 c2 73 3e ab 8b f1 bd
       0.056059398 -0.069309406 0.23804773 -0.11794218
0003c0 54 53 aa bc 22 c1 d6 3d 42 74 a1 bd 53 51 cc be
       -0.020791687 0.10486056 -0.078835025 -0.39905795
0003d0 3c e3 1a 3d 0d f7 28 3e 45 df ae bd 79 cf 2d 3e
       0.037814364 0.16500492 -0.08538679 0.16973676
0003e0 f0 a1 b0 bd 17 b7 78 3e 2e 7c 49 3e 0c 85 f4 3d
       -0.08624637 0.24288593 0.19676277 0.11939439
0003f0 65 6d f2 bc f2 4c 09 bd 57 64 d1 3d bc 25 ba be
       -0.029593179 -0.033520646 0.102242164 -0.36356914

fc0.1.bias f4 [20]
000000 70 97 37 be d6 bf d2 be 8b f0 31 be d7 07 90 3e
       -0.17928863 -0.41161984 -0.17376916 0.2813098
000010 ba cb 9a 3d 2b b1 0c bd 99 dc 78 be a7 9a 3a be
       0.07558389 -0.034348648 -0.24302901 -0.18223058
000020 dc 19 d3 bd 6d 18 ea bd ee 33 82 3d e0 1a d5 3d
       -0.10307667 -0.1143044 0.06357561 0.104055166
000030 25 a5 a1 bc bb 84 82 3d ee 45 38 3e ef 03 53 3d
       -0.019732067 0.063729726 0.17995426 0.051517423
000040 0f 20 9a bd 3d c8 8d 3d 8d 73 44 be 36 86 22 3c
       -0.07525646 0.06922958 -0.19184704 0.009919694

fc0.2.weight f4 [20, 20]
000000 6d e2 f9 3d 4f a9 e8 3e 5d 17 02 bf fc ac c6 3e
       0.122013904 0.45441672 -0.508169 0.38803852
000010 79 b7 d2 3e 70 4c 8d 3e 30 95 0a 3e 1d d0 12 3d
       0.41155604 0.2759738 0.13533473 0.035843004
000020 8e dc 5b be 09 07 db be 3f c1 0e 3e fc ce e9 bb
       -0.21470854 -0.42778805 0.13940905 -0.00713527
000030 8c de 01 bc 91 26 9d be 8e be 73 be e3 6c bb 3c
       -0.0079265945 -0.30693486 -0.2380316 0.02287907
000040 00 ad a3 bd 5d 8c bd bd 42 01 91 3d 5e 51 87 3c
       -0.079919815 -0.09255288 0.07080318 0.016518291
000050 ce e8 bf 3d 2b d4 c5 3e c1 b0 31 bf 74 cf e0 bc
       0.09370576 0.38638434 -0.6941033 -0.027442671
000060 dd 65 ed bd 60 a9 3f 3c c1 8a f8 3d d6 2a 2b 3e
       -0.115916945 0.011698097 0.1213584 0.1671556
000070 89 29 a5 3e a0 fd f4 3e 78 33 fc bd 04 56 8d 3e
       0.3225825 0.4784975 -0.123145044 0.27604687
000080 94 f6 52 be 74 38 ba 3c 37 f4 95 3e a9 21 6b be
       -0.20601875 0.022731997 0.29287884 -0.22962059
000090 6d e4 a6 3c 9b e3 37 bd 60 ca fc be 34 af 1b be
       0.020372594 -0.044894796 -0.4937315 -0.15203553
0000a0 e5 29 14 be 71 8d a9 be f5 b1 a2 be 7b d4 10 3f
       -0.14469106 -0.33115724 -0.31776395 0.5657422
0000b0 7c 4a d5 bd 08 b2 f4 3e 25 b7 2b bf 38 ac fd 3c
       -0.104145974 0.47792077 -0.6707633 0.03096591
0000c0 87 08 e2 be 09 52 f8 be 50 f7 de be 3c ce 3f bd
       -0.4414713 -0.48500088 -0.4354806 -0.04682754
0000d0 9e 42 71 bd d6 18 17 3f 93 0a 18 bd db 0e 18 bf
       -0.05890142 0.5902227 -0.03711946 -0.5939767
0000e0 ea 1f 71 be 13 e6 d2 3e a4 73 97 bd 2e 95 4c 3f
       -0.2354733 0.41191158 -0.073951036 0.7991513
0000f0 41 a8 87 3e 2e 93 cb 3d cd 02 61 3d d8 c4 ea be
       0.26495555 0.09940182 0.05493431 -0.45853305
000100 03 0e 1e bf e0 ef c5 3e 30 81 53 bc c4 e2 e2 be
       -0.6174013 0.38659573 -0.012909219 -0.44313633
000110 58 c4 8e be 7f c7 8f be 22 03 0d be f3 68 f6 bc
       -0.27884173 -0.2808189 -0.13770726 -0.03007934
000120 19 5a ef 3e 7f 3b 73 be 07 80 14 3d b3 b0 21 be
       0.46748427 -0.23753165 0.03625491 -0.15790062
000130 a5 8e 07 3f c1 76 91 bc 38 b6 85 be 57 3c 6c bc
       0.52952033 -0.017756822 -0.26115584 -0.014418683
000140 3e 5b 3b 3e f9 fa ae 3e ac d5 31 3d 9d e9 1a 3f
       0.18296525 0.34175852 0.043416664 0.60512716
000150 02 a4 9a be ca 3e 99 3e eb 9e b7 3e 71 43 d8 3e
       -0.30203253 0.29930717 0.35863432 0.42238954
000160 b9 a6 6d be cb 34 b6 3e b0 74 4d bd 9f 09 43 be
       -0.23208131 0.35587153 -0.05016011 -0.19046639
000170 85 a5 10 3f 87 3d c4 3c e8 13 03 3e af 81 ea 3c
       0.5650256 0.02395512 0.12800562 0.028626291
000180 de 19 cc 3c 25 8f af 3e d7 31 6d 3e e1 58 34 be
       0.024914678 0.34288898 0.23163544 -0.1761203
000190 35 d1 96 3e 5d 99 14 3e 8c ca aa 3e 72 e2 8c be
       0.29456487 0.14511628 0.33357656 -0.27516514
0001a0 a5 65 80 3e 67 40 2b be 9f e9 8e 3e 23 95 77 be
       0.2507755 -0.16723786 0.27912614 -0.24177985
0001b0 94 94 2a bd b3 b7 cc bd 98 cb d3 bd 5f 64 46 3e
       -0.0416456 -0.09995975 -0.10341567 0.19374226
0001c0 a9 7f bb bc 4f c2 37 be 15 40 a5 3d 48 01 5c 3d
       -0.022888022 -0.17945217 0.08068863 0.05371216
0001d0 b4 5c 09 be 35 88 9d bc 6b 72 ce 3d 8f 9c a2 3e
       -0.1341427 -0.019229988 0.10080417 0.3176007
0001e0 3e 74 c3 be 4a 13 31 3e 7f a0 ba 3d 08 89 10 3e
       -0.38174623 0.17292514 0.091126435 0.14114773
0001f0 11 0e 44 bd 7e cd e1 3d 1d b8 50 3d 48 43 b9 bc
       -0.047864977 0.11025523 0.050956834 -0.02261509
000200 c3 54 78 3d 5d 33 75 3d b3 cc 60 bc 34 58 9f bc
       0.06062771 0.059863437 -0.013720679 -0.019451238
000210 44 e4 6a be b1 92 66 3e 97 25 3b 3e 25 56 77 bc
       -0.22938639 0.22516896 0.18276058 -0.015096222
000220 bc e8 85 3d 28 40 97 3d 1a 58 88 3d 65 56 35 3e
       0.06538531 0.07385284 0.06657429 0.17708738
000230 bb b0 88 3e a3 a5 02 3e 36 e3 3a bd 3f 50 22 3e
       0.26697335 0.12758498 -0.04562684 0.15850924
000240 3f 88 56 be 49 86 c5 bd 5d 9c 2a be ca ac f1 bd
       -0.20950411 -0.096447535 -0.1666121 -0.11800535
000250 f5 4d fa bb 84 b4 4e be 7a 2f 09 3e b5 9f 1b be
       -0.0076386877 -0.20186049 0.13397017 -0.15197642
000260 6c 5f e5 be a2 32 8f be 3b 39 15 3e c1 09 f0 3a
       -0.44799364 -0.27968317 0.14572613 0.0018313454
000270 b9 b5 8b 3e 67 1e 53 bd f1 8a 38 3e 42 fa 8d 3e
       0.2728708 -0.051542666 0.18021752 0.27729994
000280 83 bf af 3c 90 e1 0b 3d 8c 98 1c 3b ea 64 29 be
       0.021453625 0.03415066 0.0023894636 -0.16542402
000290 69 b1 d8 3e 86 a6 5f be 3b a3 46 3e 5c 84 83 3e
       0.42322853 -0.21840867 0.19398205 0.2568692
0002a0 da 6d 86 3e 31 0a b4 be ca 18 49 bc 23 fd 50 3e
       0.26255685 -0.35164025 -0.012273977 0.20409064
0002b0 96 bf 9b be 6c dc 05 be b7 36 d5 3c 9f e4 8f be
       -0.30419606 -0.13072366 0.026027067 -0.28104112
0002c0 32 02 a0 3e e5 09 0c be 4b 12 83 3e 94 05 08 3e
       0.31251675 -0.1367565 0.25599894 0.13283378
0002d0 f6 e2 1a 3e 03 18 f9 3c e6 39 94 bd 20 87 dc be
       0.15125641 0.030406957 -0.07237606 -0.43071842
0002e0 49 82 19 3d d8 c0 3d bd 1e 67 a6 3e 3c 71 e6 3d
       0.037477765 -0.04632649 0.32500547 0.112520665
0002f0 73 ad 85 be 0d 55 57 3e 63 69 dd bc 4f d3 92 3d
       -0.26108894 0.21028538 -0.027027791 0.0716921
000300 ac cd d5 3d dd 04 f1 bd 10 d2 b1 3d 13 63 29 be
       0.104396194 -0.11768506 0.08682644 -0.165417
000310 05 de a0 be ef 16 c7 3d 1e ab 8a bd 33 62 67 be
       -0.31419387 0.09721171 -0.06770919 -0.22596054
000320 e8 3e f3 3c 0a bc 69 be 36 ea ad be 4c 9d 19 bf
       0.029693082 -0.22825637 -0.3396775 -0.6000564
000330 73 81 b3 be 29 72 57 3e fa bf 3e 3e c6 49 03 be
       -0.350597 0.21039642 0.18627921 -0.12821111
000340 4a 93 94 3e f9 c9 26 bd a4 ad 95 3e 0d 62 ba 3e
       0.29018623 -0.04071996 0.2923404 0.36402932
000350 29 21 9e 3e 3f b1 26 be db af e1 3e fa 16 90 bd
       0.30884674 -0.16278552 0.4407948 -0.070356324
000360 86 2c 9b 3d 29 c5 00 bd a2 8c 10 3e ee 31 5c be
       0.075768515 -0.031438027 0.14116147 -0.21503422
000370 24 4f 82 3b 04 ee cb be 9d 23 00 be 78 15 31 3d
       0.0039767195 -0.3983003 -0.12513585 0.043233365
000380 aa fd 6b 3e d0 fa 3d 3d c8 b3 4f 3d d8 09 04 be
       0.23045984 0.04638177 0.050708562 -0.1289438
000390 4c bf 3e 3d 47 0a 01 bf 5c d1 b6 3d 7d 13 af 3c
       0.046569154 -0.50406307 0.08926651 0.021371597
0003a0 7c 02 a5 3d 56 3f b0 3e ed bf 2c be f1 59 25 be
       0.080571145 0.3442332 -0.16870089 -0.16147591
0003b0 1f 4e 09 be a9 72 58 3e e8 9e 5d 3e 4c e4 3d be
       -0.13408707 0.2113749 0.21642649 -0.1854412
0003c0 b9 92 2b 3e 3b 69 c2 3e ef 0d d2 3e 6e 56 d0 be
       0.16755189 0.3797091 0.41026255 -0.4069094
0003d0 9e 45 b1 3d df 1d 76 be 99 00 a0 3e 64 94 00 3d
       0.086558565 -0.24034832 0.31250456 0.031391516
0003e0 c1 4e bf 3d 4a 2c f1 3d 59 ae 57 3e ff 8c 03 be
       0.09341193 0.117760256 0.21062602 -0.12846754
0003f0 50 9b c6 3e 0d c6 ae be 69 ac 83 be 2c f6 53 3e
       0.3879037 -0.34135476 -0.25717476 0.20699376

fc0.2.bias f4 [20]
000000 16 bc 0c be 84 49 38 3e cd 5e db bc b9 9e a8 3d
       -0.13743624 0.17996794 -0.026778603 0.08233399
000010 d1 38 3c 3e 5d 38 18 be f6 52 7a 3e 75 fd 7e be
       0.18381049 -0.14865251 0.2444571 -0.24901374
000020 d5 77 87 be d2 92 86 be 3b 45 07 be 4a 8f 1a 3e
       -0.26458612 -0.2628389 -0.13210003 0.15093723
000030 f4 06 fe bd 61 51 83 3d f9 f9 79 3d b8 3c 6d be
       -0.1240367 0.06412006 0.061029408 -0.23167694
000040 2d 7a a6 3e 4e 99 0a be af 3f 64 3e 72 eb 98 be
       0.32515088 -0.13535044 0.22289918 -0.2986713

fc1.0.weight f4 [20, 20]
000000 25 f8 04 bd 97 a3 bf 3e 5a fa 9d be 5d f0 dc ba
       -0.03246321 0.37429497 -0.30855066 -0.0016856302
000010 a7 2a 0d 3e f0 87 2d 3e 83 1b 7b 3e 66 a6 1c be
       0.13785802 0.16946387 0.24522214 -0.15297851
000020 4e 9f 87 bd 2b 20 8d 3e 4c 67 e2 be 38 b0 dd 3d
       -0.06622182 0.27563605 -0.44219434 0.10824627
000030 b7 ff 3b be 1d fe d3 bd 4f 52 07 be 62 e7 b7 bc
       -0.18359266 -0.10351203 -0.13214992 -0.0224492
000040 72 7c 9e 3e ae 87 b8 bd 4a 26 3e 3e ec fd 87 3e
       0.3095432 -0.09010254 0.18569294 0.26560915
000050 7a 36 19 3d 51 e2 c3 3d ab f1 0e be 50 84 92 3e
       0.03740547 0.09564651 -0.13959377 0.2861657
000060 18 a4 cd 3e b3 38 15 be 3a 60 61 3e f1 10 51 be
       0.40164256 -0.1457241 0.22009364 -0.20416619
000070 c6 3f ef 3c 00 61 f9 3e 3c c2 f0 be 0c 5d bc be
       0.029205214 0.48706818 -0.4702319 -0.3678974
000080 b2 21 7f 3e c1 9f 99 3e 71 99 03 3e b2 72 68 be
       0.24915197 0.30004695 0.12851502 -0.22700003
000090 8a b7 02 be ed 78 bd 3d 18 11 c0 bd d8 77 f9 3e
       -0.12765327 0.092515804 -0.093782604 0.48724246
0000a0 6a e8 34 3e e2 b1 e7 be c9 b0 c6 bd e2 14 53 be
       0.17666784 -0.452529 -0.09701688 -0.20613435
0000b0 c1 11 d4 3d 37 2f b9 3d 6e a2 8a 3e 5e 79 9e 3d
       0.10354949 0.09042209 0.2707705 0.07737993
0000c0 e6 d6 cd be f5 c9 39 be 49 66 0a bd 84 63 bf 3e
       -0.40203017 -0.18143447 -0.033788953 0.37380612
0000d0 6e ad 5b bd 86 70 10 3e 2a 29 91 bc 51 39 26 3e
       -0.053632192 0.14105424 -0.017719824 0.16232802
0000e0 92 c2 2e 3d 0d e8 58 be 76 1c 80 3d 37 24 a2 bd
       0.042666025 -0.2118227 0.062554285 -0.07917064
0000f0 2d f7 0b 3b b7 8c de 3e e0 5d 7f be db 1d cf 3d
       0.0021357045 0.43466732 -0.24938154 0.10113116
000100 fd a4 7b be 43 55 7f 3c 0a 0e a0 be a5 29 57 3e
       -0.24574657 0.015584293 -0.3126071 0.2101198
000110 99 81 4a bc c3 b6 ad bd 43 94 81 be 46 bc 33 be
       -0.01236 -0.08482125 -0.25308427 -0.1755229
000120 62 8d 33 3d 84 9f 01 3e b7 0a 29 be 60 ee 13 be
       0.043836005 0.12658507 -0.16507994 -0.14446402
000130 5d 4f 8f bc 44 7c 6b be 9d 46 bc 3c 35 fd fd bc
       -0.017493898 -0.22996622 0.02298289 -0.031004528
000140 25 87 89 be c7 15 5b 3d 23 7d 92 3d a1 25 e6 bd
       -0.2686092 0.053487565 0.07152774 -0.11237646
000150 47 91 e0 be 95 db c9 bd c4 5c d6 3c a8 2d ca 3d
       -0.43860838 -0.09856335 0.026167281 0.098719895
000160 ee ca cd bd fd 12 84 3d 73 73 75 3d b4 9b 42 3d
       -0.100484714 0.06448934 0.059924554 0.04751177
000170 ed 9d 7c be 75 d5 09 3e 55 15 e1 bd 35 44 ee bc
       -0.24669619 0.13460334 -0.10990397 -0.029085258
000180 57 32 29 be c9 36 8f bd d0 33 f6 3d cc be 83 be
       -0.1652311 -0.06992871 0.12021601 -0.25731504
000190 ce e8 cb be d3 7d 46 3d a4 70 e9 bc 6e d3 7a bd
       -0.39826053 0.04845984 -0.028496094 -0.06123679
0001a0 e0 6f 95 be 68 ad 90 bd 58 23 99 3d 15 83 62 bd
       -0.29186916 -0.070643246 0.074774444 -0.05530079
0001b0 d2 0e 3d 3e 9d b0 63 be 3f 8b fe 3d 12 c8 a8 bd
       0.18462685 -0.22235341 0.12428903 -0.082412854
0001c0 95 28 ae bd 60 35 df bc e4 b8 7e 3e 97 08 89 3e
       -0.08503834 -0.02724713 0.24875218 0.26764366
0001d0 8b 07 cd bd f4 26 1b be b1 ab 6b 3e e4 84 68 be
       -0.10011204 -0.15151578 0.23014714 -0.22706944
0001e0 34 5b 6d 3f 55 65 e2 bf 4d 3a c6 be 59 da 3a be
       0.9271729 -1.7687174 -0.38716355 -0.18247356
0001f0 d0 7e f4 be 52 34 18 bd 20 9f f3 be 42 51 ab 3f
       -0.47753 -0.03715927 -0.4758234 1.3384173
000200 9d 12 8d 3e c5 8c 20 3d 55 cf eb be d3 c2 d9 be
       0.27553263 0.03919675 -0.4605662 -0.42531452
000210 98 a5 f5 3e eb c7 31 bd cb da 2f bf 5e 53 aa 3f
       0.479779 -0.043403547 -0.68693227 1.3306692
000220 98 d2 68 bf 0e 93 5c be 55 c7 60 3e a3 0b 90 bd
       -0.9094634 -0.21540472 0.21951039 -0.070334695
000230 94 38 65 3f 27 0a 25 bf 04 c1 1e 3d 48 84 39 3e
       0.89539456 -0.64468616 0.038758293 0.18116868
000240 ff c0 15 3d b9 86 db be 3a 7c 21 3e a1 cd 99 3e
       0.03656101 -0.42876223 0.15770045 0.30039695
000250 cf 1b a7 3e 2b 93 d1 3d e8 24 48 3e 91 d6 e4 bd
       0.32638404 0.10233148 0.19545329 -0.11173738
000260 22 43 5e 3e e1 3a 52 be 67 b4 3a 3e 46 7c 7d 3f
       0.21705297 -0.20530273 0.1823288 0.9901775
000270 a1 ca 80 3e 29 57 2a be 7a 06 9a bd 8c 43 b8 bc
       0.25154594 -0.16634811 -0.075207666 -0.022493146
000280 a9 f3 81 3a e3 09 d0 be c8 8f fc bd dd bc 84 be
       0.0009914535 -0.40632543 -0.123321116 -0.2592534
000290 8e bb c3 bd db 46 97 bd e4 35 b1 3d 41 5c 58 3d
       -0.095572576 -0.073865615 0.08652857 0.052822355
0002a0 9f 46 8c be ac 5a dd 3d fb 0a 8a bd ac 23 8a 3d
       -0.2739763 0.1080831 -0.067403756 0.06745085
0002b0 e5 1b a8 be 82 bd 61 3e dc d6 c3 3d 2d 48 98 3d
       -0.32833782 0.22044948 0.095624655 0.074356414
0002c0 6c 0d 43 3c f7 67 18 be 38 6d b6 3d 55 01 a1 be
       0.0119050555 -0.1488341 0.089075506 -0.3144633
0002d0 74 da 44 be d8 b1 df bd 45 49 4b 3e 6a 70 40 3e
       -0.19223958 -0.10922593 0.19852169 0.18792883
0002e0 f6 ff b8 3b 5e 9d 0b be ea b8 e0 bc 23 b8 1d be
       0.0056457473 -0.1363425 -0.027431924 -0.15402274
0002f0 9b 72 8c bc 26 43 32 be c4 f1 0b 3e 1e d7 90 bb
       -0.017144492 -0.17408428 0.13666445 -0.004420175
000300 28 4a 3c be de c2 46 be d4 69 ed 3d ce 81 69 bd
       -0.18387663 -0.19410273 0.11592451 -0.057008557
000310 3e 89 6b be 47 b7 b3 3d bb 48 1e 3d 19 4b 44 bd
       -0.23001572 0.08775192 0.03864358 -0.04792318
000320 ac 2d ab 3e bf 9b 5e be 4e e5 8b be 6a b6 65 3d
       0.33433282 -0.217391 -0.27323383 0.056082167
000330 2c c6 78 3d 0a 04 ac 3d 79 ac f6 bd e5 50 7f 3e
       0.060735866 0.08399208 -0.12044615 0.24933203
000340 30 01 82 3e 4c 39 47 3e 67 10 76 3d 74 27 e4 bc
       0.2539153 0.19455451 0.060074236 -0.027850844
000350 d0 ce 50 3e 98 32 63 be cd 19 5c be b3 29 be 3c
       0.20391393 -0.22187269 -0.21494217 0.023213243
000360 18 a2 71 be 3b a4 04 3e 96 7e 07 bc 70 7a 43 3e
       -0.2359699 0.12953274 -0.0082699265 0.19089675
000370 4d b3 50 be ed 29 81 bd 58 a1 be 3e 11 47 49 be
       -0.20380898 -0.06306825 0.3723247 -0.19656016
000380 ed a2 9f 3e 84 00 06 be b2 6b f3 3e 94 da da 3d
       0.3117899 -0.13086134 0.47543103 0.10686222
000390 fa 85 fb 3a 2d dc af 3b 2d 73 af 3e fc 1c 4f 3e
       0.0019189708 0.005366823 0.3426756 0.202259
0003a0 8e 53 91 bc 2e f1 7c bd 6e 99 b9 bc 58 49 67 be
       -0.017740037 -0.061753444 -0.022656169 -0.22586572
0003b0 d9 c2 b9 be 4a 6c 4e bc 80 23 19 be 6f 9a fa 3c
       -0.3628147 -0.01259906 -0.14954948 0.030591218
0003c0 13 d9 19 be 18 35 f6 bc 42 1d db 3c c6 46 04 3e
       -0.15024213 -0.030054614 0.02674735 0.12917623
0003d0 2c 02 4f be f8 7c ab 3d e7 30 92 3c 52 2c 81 bd
       -0.20215672 0.08373445 0.017845584 -0.063072816
0003e0 0d b2 0e 3e a0 96 ae 3c b4 a2 55 bc 32 d9 0e be
       0.13935108 0.021312058 -0.01303928 -0.13950041
0003f0 31 6e d0 3e 95 e5 af be ac 8c 28 be ed 4a 24 be
       0.4070907 -0.34354845 -0.16459912 -0.16044207

fc1.0.bias f4 [20]
000000 52 46 ba bd 14 66 53 3d 61 5e 1a 3c 87 1e 18 be
       -0.09095444 0.05161102 0.009421916 -0.14855395
000010 46 f2 1c 3e 33 7d 8c bd 36 8a 5e 3c bb 0b 50 be
       0.15326795 -0.06859817 0.013582757 -0.20316975
000020 d1 bd 04 3e 2d de 94 3e b5 57 b1 bc d2 a8 99 3e
       0.12963034 0.29075757 -0.021648267 0.30011612
000030 ed d6 94 be 92 f9 cf bd 7e 83 68 3d 36 8f 28 bd
       -0.29070225 -0.10155024 0.056766026 -0.0411522
000040 ea 55 30 3d fc 55 9e 3e 77 81 42 3e 7a 71 a2 3e
       0.043050684 0.30924976 0.189947 0.317272

fc1.1.weight f4 [10, 20]
000000 62 09 00 bc 9c d2 e4 3c 80 32 47 bc 9a 51 94 3d
       -0.007814737 0.027932458 -0.012158036 0.07242127
000010 4d ee 46 bc f3 7b 68 3d 94 a4 f6 bc cf 15 9c 3c
       -0.012141776 0.056758832 -0.030107774 0.019053368
000020 65 8c fb 3d 96 2e de 3c d9 58 a8 3d 96 06 34 3d
       0.122826375 0.027121823 0.08220071 0.043951593
000030 36 6f 13 3d c8 71 56 3c 0e a9 a5 bd 07 ff 35 3d
       0.03599473 0.013088651 -0.08088885 0.044432666
000040 5f 1b 9e 3d e2 07 c3 bc 15 02 e5 3a 14 39 b3 3d
       0.07720064 -0.02380747 0.0017471934 0.08751121
000050 a1 d4 38 3d 1e 14 a3 bb ad 88 e6 bb eb 55 a3 bc
       0.045124654 -0.0049767634 -0.007035336 -0.01993843
000060 09 72 9c bd c3 49 ca 3d 85 13 fa bd 32 9a 33 bc
       -0.07638938 0.0987735 -0.12210754 -0.010962056
000070 f5 bf 89 bc 7b 05 05 bd 7d 57 d7 bd 5b 25 91 bc
       -0.016815165 -0.03247593 -0.10514734 -0.017718008
000080 1a 2c 3f bd 26 01 82 be a5 e3 42 3d 4a 5a c2 bc
       -0.046672918 -0.253915 0.04758038 -0.023724694
000090 b3 51 ee bd 19 d4 6c 3e c0 b1 8e be bf 2c c4 3d
       -0.11636677 0.23127784 -0.27869987 0.09578847
0000a0 13 88 1a 3d df 80 74 be 3e bb 43 3e 2b b0 64 3e
       0.037727427 -0.23877285 0.19114396 0.22332828
0000b0 8f 4b 24 3e da fe fc 3d aa 6e d0 3d 74 2d 6b 3e
       0.16044448 0.123532966 0.101773575 0.22966558
0000c0 9d 5d 8d 3e d1 d1 50 3e 23 8a b2 3d 25 56 31 3e
       0.27610484 0.20392539 0.08717754 0.17318018
0000d0 f8 9b 96 bd 14 fb 00 bd ab 65 cc 3d d0 ac 2b 3e
       -0.073539674 -0.031489447 0.09980329 0.16765141
0000e0 2b a2 bf bd 6a 70 93 3e 62 2e 41 be fa 6b 3b 3e
       -0.09357103 0.28796703 -0.1886535 0.18302909
0000f0 4d 15 db 3e a5 c6 ac 3e 72 9c 55 be 27 48 c2 bd
       0.4278969 0.33745304 -0.2086046 -0.09486418
000100 ef ed 79 bd fa 43 17 bd 8b a2 79 bd a8 ed 62 be
       -0.061017927 -0.036930062 -0.06094603 -0.22160971
000110 a6 2a a7 bd e2 1d d6 3d 20 92 64 be 83 81 74 3d
       -0.081624314 0.104549184 -0.22321367 0.059693824
000120 ca be 42 be 85 49 a4 be eb a0 35 be c9 36 96 3e
       -0.19018093 -0.3208734 -0.17737167 0.29338673
000130 9d ab 77 be 49 17 b8 bd e9 09 8a 3e 0e d7 0b 3e
       -0.24186559 -0.08988816 0.26960686 0.13656256
000140 28 84 b1 3e 13 15 65 3e a8 a7 8c 3e 7f 16 b5 3e
       0.3467114 0.2237132 0.27471662 0.35368726
000150 b8 16 6c 3d bb e5 14 bd 6c e7 9a 3e 60 be 83 3d
       0.057638854 -0.0363519 0.30254686 0.064327955
000160 83 bd 64 3e bb d4 de be c1 6d bb 3e 40 b1 b5 be
       0.22337918 -0.43521675 0.36607173 -0.35486794
000170 2a 2f 27 3e 65 81 cc 3e b9 6b c6 be 9f 2a 41 3e
       0.16326585 0.3994247 -0.3875406 0.18863915
000180 33 2b a0 bd c0 f8 ae 3e 16 8f 35 be 44 56 1c 3e
       -0.078207396 0.34174156 -0.17730364 0.15267283
000190 c4 dd 1f be 90 67 87 bc 69 8c 39 3e 24 84 f1 3d
       -0.1561194 -0.016528875 0.18119968 0.11792782
0001a0 6b de c2 3d 4e 93 b5 bd 03 13 53 3e 57 e4 1b be
       0.09515079 -0.08865987 0.20612721 -0.15223823
0001b0 5b 78 15 3e 95 04 d8 bd 0a 71 61 bc 66 8e c6 bc
       0.14596693 -0.10547749 -0.013759861 -0.024237823
0001c0 d5 c6 4f be e2 ab 0f 3d 44 ed f4 bd e9 85 18 be
       -0.20290692 0.03507603 -0.11959317 -0.14894833
0001d0 a4 60 3b 3e 74 ae 0a be be 4c 31 3e 74 6b 6d 3e
       0.18298584 -0.13543111 0.17314431 0.23185521
0001e0 1d 6f 74 bd 3b d4 ab 3d fd 85 1b 3e 0f 36 3c 3c
       -0.05967628 0.08390089 0.15187831 0.011487498
0001f0 e5 cc 13 3e 6b 4c de 3d d2 ce d4 3b bd 6f 39 3d
       0.1443363 0.10854419 0.0064943815 0.045272578
000200 64 bf 2c be a7 13 db bd 77 3d bf bc b5 10 1a 3d
       -0.16869885 -0.10697108 -0.023344738 0.03761359
000210 10 50 ce 3d 27 79 d5 bd b4 a9 43 bd e9 ff ef 3c
       0.100738645 -0.104234986 -0.047769263 0.029296832
000220 af 80 ea 3c 9c 4b 94 bd 8d bf 72 3d 9d 70 b1 bb
       0.028625814 -0.07240984 0.05926471 -0.005415036
000230 24 ed a9 bd e5 ae ab be 69 87 9a 3d 27 ab ed 3c
       -0.08297184 -0.3353187 0.07545359 0.029012276
000240 c7 67 e7 3d 22 13 86 3c b1 b1 4d 3e f4 57 63 3e
       0.11299091 0.016366545 0.20087315 0.2220152
000250 e6 bf 12 3e 87 0f 62 bd 42 e0 69 be 7a b2 2e be
       0.14331016 -0.05519059 -0.22839454 -0.17060271
000260 48 3e 54 be 91 f7 28 be 76 a7 04 bd a8 4e 49 bd
       -0.20726883 -0.16500689 -0.032386266 -0.049147278
000270 d9 c0 24 be 0a fb 16 3e 35 39 14 bf 58 60 8a 3e
       -0.1608919 0.14744201 -0.5789979 0.2702663
000280 66 dd ee 3d 52 cf 0f 3c 98 ca 0b 3e a0 d8 df 3d
       0.11663322 0.008777456 0.13651502 0.1092999
000290 e9 5a 1d 3c 53 51 96 3b 97 f5 15 3d 20 75 8d bc
       0.009604194 0.0045873313 0.036611166 -0.017267764
0002a0 30 37 22 bc 96 01 4e 3e 6d 95 69 3d 6f 10 9d bc
       -0.009900853 0.20117792 0.05702727 -0.019172875
0002b0 a8 d6 f6 bb e0 2a ed 3c 5a 37 be bc 1b 44 40 3d
       -0.0075329132 0.028951108 -0.023219753 0.04693995
0002c0 2e 29 04 3c a9 81 d2 b9 fb 5d 2d 3d 7e a2 b1 bd
       0.008066459 -0.00040150926 0.042325955 -0.08673571
0002d0 cd ee 28 3e 7b af af 3e 7c 72 e0 3d 6d 6c 6c be
       0.16497345 0.34313568 0.10959336 -0.23088236
0002e0 ed 13 83 be 3a 3e ab be 08 77 63 be e2 2c 50 bd
       -0.2560114 -0.33445913 -0.22213376 -0.050824054
0002f0 00 4f 88 3d 25 d5 52 bd 38 88 19 3e 4e 90 ea 3d
       0.06655693 -0.0514728 0.1499337 0.11453305
000300 04 0a 15 be 2b 10 1a 3c fb 94 f9 bd bd c4 35 3e
       -0.14554602 0.009403269 -0.12186619 0.17750831
000310 a1 06 05 3f 99 ff 40 b9 19 54 d9 3d f1 61 5f 3e
       0.5196324 -0.00018405764 0.106117435 0.21814705

fc1.1.bias f4 [10]
000000 29 a1 48 bd d3 1c 86 3e 96 54 71 3e 0b 4f 1b 3e
       -0.04898182 0.26193866 0.23567423 0.15166871
000010 b0 4d b6 3c 4f 2b a3 3e 11 de c9 3d 92 ca 7f 3d
       0.022253841 0.3186898 0.09856809 0.062449045
000020 86 41 85 bd eb 3e 09 3e
       -0.06506638 0.13402908

fc_final.weight f4 [1, 10]
000000 34 2f 00 ba bd f6 3e 3e b3 3c 25 3e 48 d1 31 3e
       -0.00048898463 0.1864881 0.16136436 0.1736499
000010 70 99 85 be e1 12 5d 3e 82 d8 99 3a 87 55 a1 3d
       -0.26093626 0.21589233 0.0011737498 0.07877641
000020 48 c3 a4 b9 7b 5b 2a 3d
       -0.00031426013 0.04159115
